results/net_params_third_1.pkl (torch, 62763 bytes, 24 tensors)

cir1.weight f4 [18, 18, 3, 3]
00000000: 104f 343d 71c2 8abc c215 ebbc 16b9 2b3d
00000010: ddf2 92bd 9d0f 543d 3e34 54bd cd51 33bd
00000020: 8a7a 4c3d 7799 263c fb8a 5c3d 6d35 8bbd
00000030: 2cf2 7e3d 109f 113d 00e9 7f3c 083e 76bd
00000040: 9253 3dbd 3378 213c ef08 873d c3be 3b3d
00000050: c695 8a3d f091 73bc ab93 6cbd 4883 1c3d
00000060: 2963 debb 82f2 983d 760e f8bc 0c57 523d
00000070: 1395 2dbd b5fc 4ebc 077d 42bd 3948 be3c
00000080: 32c9 7839 a055 bebc 346f a63c 177d 8c3c
00000090: 891f 7f3d c10d 84bd 30fb 22bc 5f31 1cbd
000000a0: bcc2 6c3d 3d64 bebc 6532 e63c bc7f f43c
000000b0: 2f95 163d cef5 86bc ff2d 183d 51bc 973d
000000c0: 6c64 213d 8f28 9fbd d9c6 1ebd 71b2 5b3c
000000d0: e4fd 62ba 452b 00bd 9be8 a23d b988 5abd
000000e0: 693b 52bc b114 be3c f9c2 80bd 6c89 73bc
000000f0: 40be dabc da6c 87bd 212c 5cbc acef 3bbd
00000100: 5d00 d43c b782 45bd f905 3b3c 8195 89bb
00000110: 2d70 c63c e135 e83c 93d3 bfbc f09c fb3c
00000120: a6fc 8cbd 1352 ddbc d786 89bd 49fe 833d
00000130: 586d f1bc dcbb 6cbd 1ed8 d63a 70b5 2fbd
00000140: 8e63 e33c 1d0a 123d a377 983d 1448 8bbc
00000150: 33d3 90bd 3186 89bd 5f9b dd3c 05de 09bd
00000160: 430a 28bd 2fef 9ebc 3971 423d 7a30 72bc
00000170: 620c 91bd a7ab 173d aa5f 8abd ae51 293d
00000180: e4c1 843d 6c98 073d 0d27 5abc c481 793c
00000190: c7ad 943d 52bd 09bd e81a c43c b384 4b3d
000001a0: d263 6dbd 3472 80bd 37b7 8fbd e38d c6bc
000001b0: db02 4cbc 9111 7c3c 3694 91bd 20d6 cf3b
000001c0: 0836 9d3b 4774 233c 026e 753d 1310 86bd
000001d0: fe2c 353a 3874 babc 810f 4a3c 7707 8b3d
000001e0: 5a8d 97bd 3c43 8d3d ddcc d83c 7cbc 6f3d
000001f0: b5c7 08bd ebb5 b33b dab7 203d f095 82bd
00000200: e057 4c3d 4b13 0d3d 9359 f13b 3764 5dbd
00000210: 18b7 393d ae6d c0bc daa9 4c3d 77d3 1e3d
00000220: 8b0f 8bbd 0256 c73c 2573 6f3d ac72 95bd
00000230: ebba 46bd a630 d4bb 9d5c a53d 2d05 1abd
00000240: a221 bbbc d2bd 6abc a6d3 403b 356b d2bb
00000250: 17cd 67bc 29c8 263d 70b4 443d de34 31bd
00000260: 219a 053b ba6d 43bd 6bfc 6cbd 2dc2 eabc
00000270: 6d1f 59bd e3ac dcbc a7c7 39bd 16a0 1f3c
00000280: 22f6 303d 9d27 9abc b618 d03b 0f08 8c3d
00000290: 7245 bf3a 1e52 773d 4920 a23c ba5c a0bd
000002a0: 8c1e 043b ec44 debc 5426 d03c 2c9b 93bd
000002b0: b9ed 91bd 0cb8 90bd 955b dbbc 405a 83bd
000002c0: 5272 94bd 73b0 c43c 04ca 7d3b 663b 2ebd
000002d0: 6a2b 20bd 9586 8fbd 9b83 56bc 3f4d 0ebc
000002e0: 6960 843d 473f 9a3d 007e a7b9 2049 683d
000002f0: e95c 0dbd 3222 90bd 0809 173d 9e92 5cbd
00000300: 8e5f 503d dcd6 95bc deea 163d fae4 77bd
00000310: 14b7 2f3d 54cd 1f3d 291a c83c 1138 68bd
00000320: 4842 2f3d e376 18bc 9a62 47bd c12b 8f3d
00000330: 8cd2 153d cb31 613d 8650 803c 8bbc 3b3b
00000340: fc6d 533d 1087 843d 4fe9 2e3d ba43 01bd
00000350: b550 a0bd 26fa 463d e1b0 36bd cd2d 3a3d
00000360: 8ba1 7cbd 0397 2bbb d8fc 823d 7c99 1f3d
00000370: 0803 51bd fe0f 2a3c 09d2 7f3d 40e2 873b
00000380: 988e 95bb 161e 71bd 3d4f cd3c 878f 8c3d
00000390: b5e7 43bd 31d3 27bd 3251 f83c a72d 8cbd
000003a0: 718f 01bd 4966 773d 3d4d 93bd 7c79 50bb
000003b0: 38e0 ec3c 6bb4 30bc 6d43 ea3c ed01 ab3c
000003c0: 220d c33c a84f eb3c 6e5c b93c 66d4 b83c
000003d0: 583d d7bb 3404 8abd d941 9c3c 982a 163d
000003e0: 23c3 9bbd cbca 0a3d 003e 883c 8121 b3bb
000003f0: 449e 753d 5922 653d d7e2 433d 8f60 c1bc
0.044020712 -0.01693842 -0.028696898 0.04192456 -0.07175229 0.051772702 -0.051807635 -0.043779183
0.04992155 0.010168425 0.05384348 -0.067972995 0.06224267 0.035552084 0.015619516 -0.06011775
-0.046222277 0.009855318 0.06593501 0.04583622 0.06766848 -0.014866337 -0.057758015 0.038211137
-0.006786723 0.0746813 -0.030280333 0.051352546 -0.042378496 -0.012633492 -0.047482517 0.023227798
0.00023726074 -0.023234189 0.020316698 0.017149491 0.062285934 -0.06447936 -0.009947583 -0.03813302
0.0578029 -0.023241157 0.028100202 0.029846065 0.036763366 -0.01647463 0.03715324 0.074089654
0.03940241 -0.07771408 -0.038763855 0.013409243 -0.00086590485 -0.031291265 0.07954522 -0.053353045
-0.012831547 0.023203226 -0.06287188 -0.014864307 -0.026702046 -0.06612559 -0.0134382555 -0.045882866
0.02587908 -0.048220363 0.011414998 -0.0041987305 0.024223411 0.028346004 -0.023416316 0.030714482
-0.06884126 -0.027016675 -0.06715172 0.064449854 -0.029471084 -0.057796344 0.0016391312 -0.04289764
0.027757432 0.035654176 0.07444694 -0.017002143 -0.07071533 -0.06715048 0.027051626 -0.033659
-0.04102541 -0.019401161 0.04747126 -0.0147820655 -0.0708244 0.037028935 -0.06756528 0.04133766
0.06482294 0.033104345 -0.0133149745 0.015228692 0.07259708 -0.033627816 0.023938611 0.0496871
-0.057956524 -0.062717825 -0.07017367 -0.024237579 -0.012451853 0.0153850475 -0.07108347 0.0063426644
0.004797701 0.009976453 0.059919365 -0.06546035 0.00069113064 -0.022760496 0.012332798 0.06788533
-0.074000075 0.068975896 0.026464874 0.058529362 -0.03339358 0.005484333 0.039237835 -0.063762546
0.04988849 0.034442227 0.0073654144 -0.05405065 0.045340627 -0.0234898 0.04996667 0.038775887
-0.06790074 0.024333004 0.05845942 -0.072972625 -0.048518103 -0.006475526 0.08074305 -0.037602592
-0.022843186 -0.014327483 0.0029423027 -0.0064214715 -0.014148018 0.04071823 0.04802364 -0.04326331
0.0020386057 -0.047712065 -0.057857912 -0.028657043 -0.053008486 -0.026937908 -0.04535642 0.009742757
0.04320348 -0.018817717 0.006350602 0.068374746 0.001459284 0.060381047 0.019790785 -0.07830186
0.002015981 -0.027132474 0.025408901 -0.07207331 -0.0712542 -0.07066354 -0.026777068 -0.06413698
-0.07248367 0.024009919 0.0038725147 -0.042537116 -0.039103903 -0.07008091 -0.013092901 -0.008685409
0.06463701 0.075316004 -0.000319466 0.056710362 -0.034512434 -0.07037772 0.036873847 -0.053850763
0.050872378 -0.01829093 0.03684508 -0.060521103 0.042899206 0.039014176 0.024426537 -0.056694094
0.04278782 -0.009305689 -0.04867802 0.06990767 0.036577746 0.054979127 0.015663397 0.0028646316
0.05161856 0.06471074 0.04270297 -0.03155873 -0.07827894 0.048578404 -0.04460228 0.045453835
-0.061677497 -0.002618254 0.06395882 0.038964733 -0.05102828 0.010379789 0.062456165 0.004146844
-0.0045641176 -0.058866583 0.025062198 0.06863313 -0.047828395 -0.040972892 0.030312154 -0.06844645
-0.031630937 0.06040028 -0.071924664 -0.0031810692 0.02891551 -0.0107852025 0.028596604 0.020874942
0.023809973 0.028724506 0.022627082 0.022562217 -0.006568592 -0.06739083 0.019074367 0.036661714
-0.07605579 0.033884805 0.016631126 -0.0054666405 0.059965387 0.05594096 0.047823753 -0.023605613

cir1.bias f4 [18]
00000000: 3fe7 82bd 4cb0 483d 899c a53c 6599 a33d
00000010: ad98 6a3d 10d0 8bbd 539a 3cbc 9b9b 13bb
00000020: f931 c33b ab94 dbbb da84 383d 3a6c 553c
00000030: 247d 693d 4d56 893d 2fe4 92bd b045 44bd
00000040: 3df6 3bbd 8d88 a4bc
-0.06391763 0.048996255 0.020216243 0.07988242 0.05727451 -0.06826794 -0.011511403 -0.0022523168
0.005956885 -0.006701072 0.045048572 0.0130262915 0.05700411 0.06705914 -0.07172429 -0.04791802
-0.045889128 -0.020084644

cir2.0.weight f4 [18, 18, 3, 3]
00000000: 59aa 163b 7c87 1e3d da6b 813d 4a42 9d3c
00000010: 15a7 833d b6e2 21bd c7d8 c0bc 9f5e ad3c
00000020: 3607 96bc 3634 07bd eeed 5a3d 1855 2f3b
00000030: 1845 9abc 028b 0abc 3dd8 3dbd 8633 733d
00000040: 092b 53bd cdd7 5bbd c4cf 1bbd 41c9 94bd
00000050: d326 9e3d 8b48 48bc 4943 3b3d f141 e83a
00000060: a3ff 7e3d f567 fd3c 49c4 4bbc 7b89 a03d
00000070: 682c 2d3d 38b2 393d 9f2b 32bd 0b85 0ebc
00000080: 67e0 1b3d ad5f fa3c 0304 a43d ccd9 463d
00000090: 3d6b 72bd 54bc 58bd b73d 7ebc 9202 723d
000000a0: a3dc a3bd a960 f43c 6fb5 8fbd 8c9d 86bd
000000b0: 734d 323d b3c7 9abd c920 58bd 8ca7 65bd
000000c0: 6a81 8ebd d9ae 573c b6ad 1b3d 2687 873c
000000d0: d331 2fbd 0aac 923d 9dc5 39bd c2eb cfbb
000000e0: 8c3c 903d 9441 09bd f360 0d3d f566 ba3c
000000f0: 14a3 d93c 248a 57bd aba0 4bbc a2c9 37bd
00000100: 5f4f 5e3d c062 783d 3d05 8b3d 8a12 603c
00000110: cb12 01bd cb0c 49bd ba6c af3d 53ee 0f3b
00000120: e363 9fbc ea98 b7bb ea39 8e3c 693f fa3c
00000130: c339 01bd bf25 1ebd 4282 74bc e4ea 833d
00000140: 7295 83bc 4dee a1bd af67 593d 16ea b3bc
00000150: c4ed 44bc 98e5 143d 01f6 a9bd 76ee 0abc
00000160: c89f 363d 1c96 913d c64b 11bd 3777 84bd
00000170: 1efb 05bd 6693 e1bc abfa b0bc ca08 993d
00000180: 4811 1b3d 7878 c2bb 67db 6f3c 3684 863d
00000190: c441 863d 8fe0 a23c 4cf6 f2bc b36f a63c
000001a0: 4912 a9bc 998f 8abc 6dd3 a1bc 2677 35bd
000001b0: ac86 963d b377 07bd cc81 733d b4b2 7f3c
000001c0: 564f bbbc 1b75 853a 04e5 8b3c c2d0 9abd
000001d0: 50a6 fabc 54e7 8cbd 2b22 923d 1ad8 0ebd
000001e0: 7ef0 31bd 5cbd 87bd f4d9 2e3b 0edc 8d3d
000001f0: 1253 c5bc a01d 82bd b78c 8b3c de06 cabc
00000200: a593 c73c 0a9e 533c c24c 81bd 6000 993d
00000210: cab8 833d 3385 fa3c e5dc 533d 164f dbbc
00000220: 1517 2a3d 2cc1 5abd 235f 31bc d007 873d
00000230: 83d6 e13c 2ad0 5a3c 2eb3 7fbd adf5 963c
00000240: 970d 5d3d db46 a43d a26c 06bd 3dfe 3abd
00000250: 9553 cc3b cf70 443d 5b34 543c 9120 5e3d
00000260: 251e f93c b721 e9bc da6a ae3c 7540 ae3b
00000270: 19f0 1d3d 29bb 1a3d 50a7 9bbd 3683 a23d
00000280: b7d5 3abd fbf5 9a3c 7dfb 233d 1b31 c2bc
00000290: b468 1cbd 3fee 1bbc 412f 573d 86a8 063c
000002a0: 941b 2abd 8529 82bd 2408 00bd 15a9 e83c
000002b0: 78aa 7cbd 5389 483d 3f5a 5b3d 2275 36bd
000002c0: 6276 8a3d 819e 9b3d d92c 803d 3ccd edba
000002d0: 0888 67bd e462 61bc ff6d 2dbd ef28 253d
000002e0: c8be 9dbd 9ea7 b9bc bd7e 733d cd60 443d
000002f0: 922d 47bd 62d6 8bbd 745d f33c 25d8 33bd
00000300: fb93 61bd de88 61bd 9f7a 8a3d 0102 82bd
00000310: 45f3 a23c f629 e139 0fcc 81bd 3a2e 9e3c
00000320: 808a 403d 36d4 8abd ed70 2f3d 10c0 a73c
00000330: afb5 3ebd b13d 5fbd cd42 5c3d e769 62bd
00000340: b655 293d ca7e 68bd 779a 91bd 9d23 9fbd
00000350: fdd3 7dbd e79a 2e3c f1dd 8bbd b400 82bd
00000360: 3d7e 343b afae a2bc 7734 553d 92f2 303b
00000370: 8ffd 22bd 3e01 11bc 416e c7bc 8a7f 603d
00000380: 8339 ae3c 87e4 28bc df0a 36bd 6bdb ed3c
00000390: 6b77 03bc 3775 19bd 64a8 593d 91eb 94bd
000003a0: 7e15 ea3c d4ac a33c 7237 41bd d5ab 9abd
000003b0: 4670 8bbd afdb fcbc fb2c 323d afc1 4abd
000003c0: 9415 89bc 4d08 8dbd 9c86 733d 7cf6 a7bc
000003d0: 06f7 20bd 90ae 393d 3717 223d cf18 333d
000003e0: d733 b0ba 82b2 5a3d c5a3 203c f3a4 fcbc
000003f0: 698c 9fbc 5060 ba3c 1507 acbc 5bac 8d3d
0.0022989719 0.038703427 0.06319399 0.019196648 0.06428353 -0.03952285 -0.023540867 0.021163283
-0.018313985 -0.033008777 0.053449564 0.00267536 -0.018831775 -0.008455994 -0.0463488 0.05937531
-0.051554713 -0.0536726 -0.038039938 -0.07264949 0.07722249 -0.012224327 0.045718465 0.0017719847
0.062255513 0.03093336 -0.012436935 0.07838722 0.042278677 0.04533598 -0.04349863 -0.008698712
0.038055804 0.0305632 0.08008578 0.04854755 -0.0591843 -0.05291398 -0.015517644 0.059084482
-0.080010675 0.029831247 -0.070170276 -0.065730184 0.043530893 -0.07557621 -0.05276564 -0.05606799
-0.069582775 0.0131642455 0.03800746 0.016543936 -0.042772125 0.0716172 -0.045354474 -0.006345243
0.070427984 -0.033509806 0.034516286 0.022754172 0.02656702 -0.052621976 -0.012428443 -0.044870026
0.054274913 0.06064105 0.067881085 0.013676295 -0.031512063 -0.049084466 0.0856566 0.002196212
-0.01945681 -0.0056029456 0.0173616 0.030547814 -0.031549226 -0.038610216 -0.014923634 0.06441286
-0.016062472 -0.079067804 0.053077396 -0.021962207 -0.012019578 0.03635177 -0.08298875 -0.008479705
0.044585973 0.07108709 -0.035472654 -0.06468051 -0.032710187 -0.027536105 -0.021603903 0.074723795
0.037858278 -0.005934771 0.014639712 0.06568186 0.065555125 0.019882469 -0.02965846 0.020316934
-0.020638602 -0.016914176 -0.019754136 -0.044303082 0.07349905 -0.03307314 0.059449956 0.015606571
-0.022864979 0.0010181995 0.017076977 -0.07559349 -0.030596882 -0.0688006 0.07135423 -0.03487406
-0.04344224 -0.06627914 0.0026680203 0.06926738 -0.024087463 -0.06353307 0.017034872 -0.024661478
0.024362395 0.012916097 -0.063134685 0.07470775 0.0643173 0.030581092 0.051724333 -0.02677111
0.04152592 -0.05340688 -0.010825905 0.06593287 0.027568107 0.013355294 -0.06242674 0.018427694
0.05396804 0.08021327 -0.032818444 -0.045652617 0.0062355497 0.047959145 0.012951936 0.054230276
0.030409882 -0.02845846 0.021291185 0.0053177425 0.038559053 0.037776146 -0.07600272 0.07935183
-0.04561397 0.01891612 0.04003476 -0.023705056 -0.03818579 -0.0095172515 0.0525353 0.00821889
-0.041530207 -0.063555755 -0.031257764 0.028400937 -0.06168601 0.048959088 0.053552862 -0.0445453
0.06760861 0.075985916 0.06258554 -0.001814283 -0.056526214 -0.0137564875 -0.04234123 0.04032224
-0.07702404 -0.022662934 0.05944704 0.04794388 -0.048627444 -0.06828 0.029707648 -0.043907303
-0.055072766 -0.055062167 0.06761669 -0.063480385 0.01989139 0.00042946608 -0.06337749 0.019309152
0.047007084 -0.06778757 0.042832304 0.020477325 -0.046559986 -0.054502193 0.053774644 -0.055276778
0.041341506 -0.05676154 -0.0710954 -0.077704646 -0.061969746 0.010657049 -0.06829441 -0.0634779
0.0027541064 -0.019858686 0.052051987 0.0027000052 -0.039792594 -0.008850394 -0.024344565 0.05480913
0.021267658 -0.010308391 -0.04444396 0.02903529 -0.008024077 -0.0374653 0.053139105 -0.07271493
0.028574701 0.019979872 -0.047172017 -0.075523056 -0.06808524 -0.030866472 0.043499928 -0.049501117
-0.016733922 -0.06886349 0.059454545 -0.020503275 -0.03929808 0.04533249 0.03957292 0.04372483
-0.0013443184 0.053392895 0.009804671 -0.030840373 -0.019476132 0.022751004 -0.02099947 0.0691764

cir2.0.bias f4 [18]
00000000: 405b 87bd 1660 0ebd c366 853d 125d 073d
00000010: c9be 06bd 9e8b 663c 3322 7f3d aeee 5d3c
00000020: cbcb 99bd 3005 413d 62da 97bd fc19 33bd
00000030: 2440 573d ae71 73bd b8ff 9bbc a78f b83c
00000040: 8e83 2d3d 6372 4d3d
-0.066092014 -0.034759603 0.06513741 0.033047743 -0.03289679 0.014071373 0.062288474 0.013545675
-0.075095735 0.047124088 -0.074147 -0.043725953 0.052551404 -0.059434585 -0.019042835 0.022529436
0.04236179 0.050157916

cir2.1.weight f4 [18]
00000000: 6d51 803f 6661 813f 9905 803f 2828 803f
00000010: 9740 7e3f 3c8c 7e3f 82df 803f a92a 803f
00000020: 3bf3 7f3f f7a4 7d3f 2a6f 803f b68c 803f
00000030: 06b9 7e3f b010 803f a54b 803f 73a9 7f3f
00000040: 33e1 7f3f badf 7e3f
1.0024849 1.0107849 1.0001708 1.0012255 0.99317306 0.9943273 1.0068209 1.0013019
0.99980515 0.9907984 1.0033925 1.0042942 0.99501073 1.0005093 1.0023085 0.99867934
0.99953 0.9956013

cir2.1.bias f4 [18]
00000000: 2462 b33a ca28 6b3c 5d0e 923b 4040 a03b
00000010: 8837 5c3b 96f2 c33b 01bf 523c e827 923b
00000020: 42e7 de3b c9a1 4b3c e503 0f3c 465f 4a3b
00000030: ac14 c0bb e4b6 893c d0c6 293c 3f91 983b
00000040: 8c35 163a 8ac2 363b
0.0013685864 0.014352987 0.0044572786 0.0048904717 0.0033602435 0.005979846 0.012862922 0.0044603236
0.0068024704 0.012428709 0.008728956 0.0030879541 -0.0058618393 0.016810842 0.010362342 0.0046559866
0.0005730025 0.002788695

cir2.1.running_mean f4 [18]
00000000: 0c8c 05bd 7e40 f3bd d31d 54bc a404 30bd
00000010: 4a5f 2abd 8457 f7bd b6d5 0bbb 2fbb ab3c
00000020: ce38 b3bd b04b cbbd 0c14 0fbe fc63 b5bd
00000030: a172 3e3e 8a77 a0bd baf6 2f3e 08ca 2c3d
00000040: a4a2 613b 5f50 703d
-0.032604262 -0.11877535 -0.012946564 -0.042973176 -0.04159478 -0.12077239 -0.0021337098 0.02096328
-0.08751069 -0.099265456 -0.13972491 -0.08856961 0.18598415 -0.078353 0.17183962 0.04218486
0.0034429217 0.058670398

cir2.1.running_var f4 [18]
00000000: 7827 c13c 2f95 c93c d13c a23c bc43 073d
00000010: a995 473c a96d 573c 5bb0 dd3c 18c4 663c
00000020: 7eef 753c 1b41 5e3d d955 f93c ca6d 373c
00000030: 1f39 ce3c 27f4 e23c 31fb 003d 8d0f 983c
00000040: 312b 133c f56c 723c
0.02357839 0.02460727 0.01980439 0.03302358 0.012181678 0.013148704 0.027061632 0.014084838
0.015010713 0.05426131 0.030436443 0.011195609 0.025173722 0.027704312 0.031489555 0.018562103
0.008982466 0.014796485

cir3.weight f4 [18, 18, 3, 3]
00000000: 6851 ee3c dc93 a4bc c099 9cbc 98a1 553d
00000010: 9ce8 233c 36df 0a3d a006 4abd d4fb b9bb
00000020: d7f0 18bd 701b 93bd 14fb 33bc ecbe 9d3d
00000030: 3a00 7dbd 9555 b13c 1790 db3a fec8 103d
00000040: 03b3 94bb 2b5f 6639 f13e 88bd 73a3 4d3c
00000050: 0aca 92bc eb00 3dbc b8c5 653d 4566 cf3c
00000060: 838a 96bd edb3 c0bc 83b2 c63c ca8e a03d
00000070: e903 933d 0f67 31bd f41e 9abd 6542 833d
00000080: 916f 803d d7e3 98bd b58f ad3c d031 79bd
00000090: ae8d a03d 0474 88bd 28b4 dbbc 5987 ec3b
000000a0: 4999 4e3c 3f71 3ebd a55a 33bd f98e 543d
000000b0: fee3 2cbd 5703 3fbc 9ca2 243d c557 d33c
000000c0: 11b5 53bc 5ca2 533d e57b 003c 6b72 333d
000000d0: e271 663d 4353 913d 5441 9c3d 5026 933d
000000e0: 3472 82bd d4e7 593c 824a 4d3c 6704 2abd
000000f0: ea8b 143d ab98 fbbc 9866 a23a 1dc0 07bd
00000100: a402 9abd 9d53 0c3d 4ca9 613c 93db 10bb
00000110: f267 1c3d abf2 b6ba 112a 84bd ef8d f13c
00000120: c7e9 7dbd 9bf9 453d c39e 8e3d 7834 24bd
00000130: ce08 29bb 04da a1bd c999 9ebd 2190 903d
00000140: 857f 8fbd 5362 e3bc ba33 95ba 74a7 ce3c
00000150: 001c acbc d2c9 253d 2a27 313d d44e 873d
00000160: 3d80 d93c 20a2 d83b 88fc 71bd 912c 503d
00000170: 7c00 70bd 74d2 34bd 187f 5cbd 4804 e1bc
00000180: 7feb 633d aae1 f9bc 9311 b83c 3cc3 05bd
00000190: 1732 6d3d 177b 49bc f475 6fbd 4a25 30bd
000001a0: 36f9 79bd b027 723d ea1a a13d 41fc 1a3c
000001b0: 40e3 61bc eadd 6d3d 4441 303d 17d1 21bd
000001c0: 00ba 59bd 7b91 b43c d9f3 4abc 6e63 073d
000001d0: 347b 2cbd da67 e7bc 8954 3f3d db63 383d
000001e0: f9c3 b53c 3df2 91bd 3618 10bd 842d f63c
000001f0: 97c4 d43c 7539 d13c 6275 39bd 700a 3e3c
00000200: c14a 29bd cad0 843d eddb 1a3d 5a28 70bd
00000210: d582 83bd 91f9 583d 3493 d03b 88c8 08bc
00000220: 652a 7ebd c6e4 3abd a055 96bd 1a38 a33b
00000230: c269 a53c 3035 e0bb cc36 99bd 0b61 9dbd
00000240: 8cef acbc 84ca 9ebb 8e2d 413d 2fc8 423d
00000250: 4427 b2bc d956 9a3d 67c8 6b3d f076 65bb
00000260: ff9c 153d e8d5 fcbc e9c9 873b a5ff 0c3d
00000270: e351 813d 62ab 6f3d 7679 53bd aad1 763d
00000280: 9c3e 62bd 4a7a 7d3d 19b0 933d 3485 3abb
00000290: ceec c0bc d78e 86bd 71e3 7e3d 0ddc 94bc
000002a0: 9c7c e33c b393 293d 4b07 98bd 5729 58bc
000002b0: 0351 aebc f03f 6fbc 7305 8bbd ddb9 503c
000002c0: a4c4 86bd e142 57bd 24d4 3c3d eef2 67bd
000002d0: 4792 393d 33db 2bba 6eaf 8ebd 6b39 1cbc
000002e0: adc6 453c 2289 803d 5f0a 9e3d f22d 353d
000002f0: e9c7 613d fbef b7bc 54d6 d53c 282a 49bd
00000300: bea0 44bd 0a41 4ebd fbb3 3f3c b7fe 703d
00000310: befd 323c 331a 91bd 96ea c63c cd59 603d
00000320: aaa6 b23c 0f4b 453d aefe 6fbd 8420 e53b
00000330: 659b 933d f0fc 093d 8c67 1abc aa66 66bd
00000340: 47d3 e4bc 5775 773d 9250 063d 7e44 1ebd
00000350: 1ff3 4a3d a239 ce3c 8b06 63bd 8f3a a73c
00000360: 26ff 953d a74b 833d ce4c 56bc 70a7 27bd
00000370: b084 8fbd a556 9cbc e896 bdbc 61d0 d13b
00000380: 823a 3abc f81b 663d b068 49bd 63d3 b3bc
00000390: a2f6 033c b957 90bd 2d60 37bd 50cf 15bd
000003a0: 234c 9dbb ef68 413d 564e a0bd 10b2 153d
000003b0: 2f52 b83b 5a80 7ebd 99a9 39bd 9f11 753c
000003c0: b624 703d b399 433d 97b6 693d a0e2 553d
000003d0: d8fe 5a3d 25a0 713d 1a6b a9bb dd36 4abd
000003e0: de78 7f3d 15ed 8abd 82cb 8bbb fc3a 96bc
000003f0: ed57 e93c 69c5 58bd 994d 8abd 7293 99bd
0.029091552 -0.020090036 -0.019116282 0.05215606 0.010004189 0.033904277 -0.049322724 -0.005675772
-0.037339058 -0.07182968 -0.010985155 0.07702431 -0.061767794 0.021647254 0.0016751316 0.03534793
-0.0045379414 0.00021969962 -0.0665263 0.012551176 -0.017918605 -0.011535863 0.056096762 0.02531732
-0.07350638 -0.023523295 0.024255043 0.07839735 0.0717848 -0.043311175 -0.07525435 0.06409148
0.062712796 -0.07465332 0.021186689 -0.06083852 0.07839523 -0.06662753 -0.026819304 0.007218283
0.012609788 -0.04649472 -0.043787617 0.05189416 -0.042209618 -0.011658511 0.04019414 0.025798688
-0.012921588 0.05166851 0.007842039 0.04381029 0.05626095 0.07095959 0.07629648 0.07185042
-0.06369439 0.013299901 0.012529971 -0.041508105 0.036266245 -0.030712446 0.0012390194 -0.033142198
-0.07520035 0.034259427 0.013773274 -0.0022103533 0.038185067 -0.0013957819 -0.06453336 0.029486625
-0.061990526 0.048333745 0.06963875 -0.0400891 -0.0025792602 -0.07902911 -0.07744176 0.070587404
-0.07006744 -0.027756846 -0.0011383214 0.025226332 -0.021009445 0.040475674 0.04325024 0.06606832
0.026550407 0.0066111237 -0.059078723 0.05082375 -0.058594212 -0.044146016 -0.053832144 -0.027467862
0.05564451 -0.030503113 0.022469318 -0.032656893 0.057909098 -0.012297413 -0.0584621 -0.04300431
-0.06102868 0.05911988 0.078664616 0.009459556 -0.013787091 0.058072962 0.043030992 -0.039506044
-0.0531559 0.022042027 -0.012387239 0.033053808 -0.042109683 -0.028247762 0.04671148 0.045017105
0.022188174 -0.071262814 -0.03517934 0.030051 0.025972648 0.025540093 -0.04527796 0.011599168
-0.041331057 0.06485136 0.037807394 -0.058632232 -0.064214386 0.05297238 0.006365204 -0.008348592
-0.06205215 -0.04562833 -0.073405504 0.004981053 0.02019203 -0.006842278 -0.07481155 -0.07684525
-0.021110319 -0.004845919 0.047162585 0.04755419 -0.021747239 0.07536096 0.057564165 -0.003501352
0.036526676 -0.030863717 0.0041439426 0.03442349 0.06314447 0.058513053 -0.051629506 0.060258545
-0.05523549 0.061884202 0.07211322 -0.0028460743 -0.023550417 -0.06570213 0.062228624 -0.018171335
0.02776938 0.041400623 -0.07423266 -0.01319345 -0.021278864 -0.014602646 -0.06788149 0.012739626
-0.06580475 -0.052554015 0.04610075 -0.05662816 0.045305517 -0.00065557956 -0.06967054 -0.009535174
0.012071294 0.06276156 0.07716822 0.04423327 0.05512229 -0.022453299 0.026103176 -0.04911247
-0.04800486 -0.050354995 0.0117006255 0.058836665 0.010924755 -0.07085075 0.024281781 0.05477314
0.021807987 0.048167285 -0.05859249 0.0069924016 0.072073735 0.033688486 -0.009424102 -0.05625025
-0.027932776 0.06041464 0.03279168 -0.038639538 0.049548265 0.025173966 -0.05542616 0.020413665
0.07324056 0.06410914 -0.013079835 -0.040931165 -0.0700773 -0.019084284 -0.023143247 0.0064030145
-0.011366488 0.056179017 -0.049172103 -0.021951383 0.008054407 -0.07047982 -0.044769455 -0.03657466
-0.004800336 0.047219213 -0.078274414 0.036546767 0.0056250314 -0.062134124 -0.045327757 0.0149578145
0.05862876 0.047754 0.057058897 0.05221808 0.053465694 0.058990616 -0.005170238 -0.049368728
0.062371127 -0.06783501 -0.0042662034 -0.018338673 0.02848431 -0.05292264 -0.06753082 -0.07498826

cir3.bias f4 [18]
00000000: 76db 2dbc 8d3c 23bd 9232 6a3d fe71 2ebd
00000010: b9ec 103d c100 f8bc ff47 7fbd 67e4 79bc
00000020: f58f 9dbd 6a97 923d 69fd 9dbb 6a2b 65bd
00000030: 78d9 383d 0d64 743d 0198 933a 2125 ecbc
00000040: 8d5d 2b3c 4e5d 9a3d
-0.010611406 -0.039852668 0.057177134 -0.04258918 0.035382006 -0.030273797 -0.06232452 -0.015252209
-0.07693473 0.07157786 -0.0048214686 -0.055949606 0.04512927 0.05966573 0.0011260511 -0.028826298
0.010459316 0.07537328

cir4.0.weight f4 [18, 18, 3, 3]
00000000: 29da cfbc a130 16bd 41a3 61bc dcc8 16bc
00000010: 8a82 c1b8 136b a53c 1765 1bbd 7267 893b
00000020: b046 24ba 1a0b 353d 0cdd 1d3d 644f 13bc
00000030: c013 703d eb12 85bd fd52 3e3d 2c24 313d
00000040: d60c c33b dd09 a23d 3d03 683d ce65 f93b
00000050: 50d2 41bd fa25 b539 503f de3c 7168 7ebc
00000060: 3b4a 833d 922e e83c 55e1 e0bc d60e a1bd
00000070: 42a5 58bd 92bf 943d 32d2 58bd b08b 9e3c
00000080: 4b5c 563d 4873 8f3c f4cd d93c 43af 49bd
00000090: b18d 583d a8a0 503d 2e21 a4bd a2a1 69bc
000000a0: 7b8d 3d3d 495a 23bd dccf 8dbd 26bc 8abd
000000b0: 114f 7e3d b857 c63b 78af 62bd c680 563d
000000c0: 748c dd3b 529c 5a3d 9278 57bd 5b2c 17bd
000000d0: 99c3 9a3d af2f 1abd 1970 5dbd 70ec 29bc
000000e0: deda 3d3d a9b9 863d fed1 b2bc 1121 ba3c
000000f0: dd51 2dbd 8c0c 8a3d 133e 23bd e17f 88bd
00000100: dc82 a8bd c8ee 4f3d bef6 8abd 0a1b 84bd
00000110: acf0 72bd 6388 023d 831d 8cbd 1cd7 09bd
00000120: e046 59bd 1b14 4a3c d2cc 7a3d 2f88 53bc
00000130: 3f72 59bd 4fbc 0c3b 7420 88bd 2622 8c3d
00000140: e9ef 3dbd cb5d 423d 63d4 3cbb 12b9 48bc
00000150: ce2c f03c 4e59 1e3d 027c 533d 4e09 efbc
00000160: 2243 183d 5886 b6bc ab61 443d f5a4 233d
00000170: d704 5a3b 35b5 3abd af32 9fba b021 983d
00000180: 6290 113d d0f3 113d af8b a03d 24af 79bd
00000190: e8fc 473d 2793 28bd 451e d03c ee81 373d
000001a0: 3d7a 55bd d5f1 81bd f067 b638 dee0 adbb
000001b0: 2292 2abd a0ef 953d d9ca 883d 429e acbc
000001c0: 20c1 fa3b 586a ffbc 6ce1 233d 9fa4 023c
000001d0: 740c fa3c 19e6 82bd 36f7 81bd 61a2 70bd
000001e0: eda8 523d 1251 8ebd 7d6e 6e3d 0a8c 033d
000001f0: 8eb0 353d bd03 74bd c294 393d ee1d 98bd
00000200: ae67 08bc 1b24 17bc b14e 4f3d ffc9 6ebd
00000210: e61e 0fbd 548b 26bc ed78 9e3c 94cf 803d
00000220: 2521 813d 7d4b 103a 3bf5 853d 1b85 80bc
00000230: 880a edbc 5706 09bd 3af4 1c3c 0dbc dabb
00000240: c235 65bc 22e7 333d ba63 a73c b7c2 1b3d
00000250: 1eac 823d 949f 8abd 0b18 73bd 306f 09bd
00000260: a1c1 85bd 6247 babc ed4c 983d ba56 7fbd
00000270: 7dac 353d 4b97 513d d574 19bd 9969 25bd
00000280: b0c3 a8bd 9a32 8ebb b76d 5e3d 88df 96bd
00000290: 3bf0 34bd 9339 89bc e8f6 2b3d bcdf bcbc
000002a0: 92bf 30bc 77ee ddbb 163e d53c 2997 153c
000002b0: 367e 39bd a8c5 85bd 9759 bc3c 3d28 f2bc
000002c0: 2dae 963c db95 3c3b 1afd 303d 2124 e4bc
000002d0: 0b80 28bd 35e9 6fbd e24d be3c 78b7 5abd
000002e0: b191 bbbc 9f35 583d 6b1a d13c 4596 6c3d
000002f0: 87e9 22bc a231 dbbc 42de ae3c 7d08 463d
00000300: ede7 21bd 79eb 8b3d cfac 83bd 0b32 093a
00000310: 7c96 2d3c aec2 bf3c 2d70 803d d124 28bc
00000320: 3444 83bd cc83 71bc a6b1 563d efda 7b3d
00000330: 985a 82bb 7a00 19bc 1c85 93bd ce06 9b3d
00000340: 4762 71bb f160 cb3c 1521 76bc bf6c 51bd
00000350: 53a8 823d 6c3d 22bb 4623 67bd 2b75 913d
00000360: 2d0f 353d cfb8 3cbd 3e25 023d c3f6 85bd
00000370: 3b50 c63c a7f2 e63b a425 4c3b a651 223d
00000380: b7fe 4b3d 1a5a 783c af67 9fbd baf0 8bbd
00000390: 51ef 073d 7af1 cb3c 2e51 613d 79ac 4d3c
000003a0: 6358 c23c be2a 4c3d 5967 d0bc 9484 7d3d
000003b0: a226 603d 7bfe 873d 4089 7f3d 4181 923d
000003c0: 1d48 a93d 5aea a13c db0b 1abd a1dc 433c
000003d0: 172b 89bc 385c f1b9 30a6 8cbd 2831 5b3d
000003e0: f365 eb3c 53fc 97bd 6058 2dbd e035 70bd
000003f0: e26f 91bd bdcc 14bd e9cf 7abd ad63 b3bb
-0.025372582 -0.03666747 -0.013771833 -0.009203162 -9.227272e-05 0.020192659 -0.037938204 0.00419324
-0.0006266637 0.04420004 0.038540885 -0.008991096 0.058612585 -0.06497749 0.046465863 0.043247387
0.005952458 0.079120375 0.056643713 0.007611013 -0.04731971 0.00034551305 0.0271298 -0.01552783
0.06410643 0.028342519 -0.027451197 -0.07864158 -0.052891977 0.07263102 -0.052934833 0.019353718
0.05233411 0.017511025 0.026587464 -0.04923941 0.052869502 0.050934464 -0.08014141 -0.014259728
0.046277504 -0.039881025 -0.06924412 -0.06774168 0.062087122 0.0060529374 -0.05534312 0.0523689
0.006761128 0.053371735 -0.05260522 -0.036907535 0.075568385 -0.03764313 -0.054061983 -0.0103713125
0.046351306 0.065783806 -0.021828648 0.022720845 -0.0423144 0.067406744 -0.03985412 -0.06665016
-0.082280844 0.05076483 -0.067853436 -0.0645047 -0.059311554 0.03186835 -0.068415664 -0.03365241
-0.053046107 0.012333895 0.061230488 -0.012910887 -0.05308747 0.0021474545 -0.06646815 0.06842451
-0.046371374 0.04745273 -0.0028813116 -0.012251155 0.02931824 0.038659386 0.051631935 -0.029179242
0.037173398 -0.022280857 0.047944706 0.039952237 0.0033267045 -0.04558297 -0.0012145842 0.074283004
0.035538085 0.03563291 0.078391425 -0.060958043 0.048825175 -0.04115596 0.025405059 0.044801645
-0.05211853 -0.06344954 8.697796e-05 -0.0053063473 -0.04164327 0.073210955 0.06679315 -0.021071557
0.007652417 -0.031178638 0.0400099 0.007973819 0.030523516 -0.06391544 -0.0634598 -0.058748607
0.05143063 -0.06949057 0.05821084 0.032115974 0.04435783 -0.059573878 0.045307882 -0.07427584
-0.0083255 -0.009224917 0.050612155 -0.058298107 -0.034941576 -0.010165054 0.019344771 0.062895924
0.0630515 0.00055044127 0.065409146 -0.01568847 -0.028935686 -0.03345331 0.0095797125 -0.0066752494
-0.013989868 0.043921597 0.020433296 0.03802749 0.06380485 -0.06768718 -0.0593491 -0.033553302
-0.065310724 -0.022739116 0.074365474 -0.06233857 0.04435395 0.051169675 -0.037464935 -0.04038391
-0.082404494 -0.0043395283 0.05430385 -0.07366854 -0.044174414 -0.016751086 0.041983515 -0.023055904
-0.010787861 -0.006772812 0.026030581 0.009130278 -0.04528638 -0.065318406 0.022991939 -0.029560203
0.0183936 0.0028775844 0.043210126 -0.027849259 -0.041137736 -0.058572013 0.023230497 -0.053397626
-0.02289662 0.052785512 0.025525292 0.057760496 -0.009943373 -0.026757065 0.021346215 0.04834794
-0.039527822 0.06832022 -0.06429445 0.0005233592 0.01059496 0.02340826 0.06271396 -0.010262684
-0.06409493 -0.0147408955 0.052415513 0.06148809 -0.003978085 -0.0093384925 -0.07203123 0.07569657
-0.003683226 0.024826499 -0.015022536 -0.0511291 0.063797615 -0.0024755849 -0.056430124 0.07102426
0.044203926 -0.046074685 0.0317738 -0.06541207 0.024208179 0.0070479694 0.0031150365 0.039628647
0.049803462 0.015158201 -0.07783448 -0.06833024 0.033187214 0.024895418 0.05500906 0.012553328
0.023723787 0.04984545 -0.025439905 0.061894014 0.054724343 0.06640335 0.06238675 0.071535595
0.08265708 0.019765068 -0.037608963 0.0119544575 -0.01674418 -0.0004603581 -0.06867635 0.053513676
0.028735137 -0.07421174 -0.04232061 -0.05864513 -0.07101418 -0.036328066 -0.061233435 -0.0054745288

cir4.0.bias f4 [18]
00000000: 8cc3 8b3a c992 7ebd deb4 823d 6646 4f3d
00000010: 844e 4e3d d6f7 2e3d b418 1a3b 7029 443c
00000020: eee7 93bd ebae 663d 568c 363d 8e61 6cbc
00000030: d62a 243d 24a8 2bbc 0ea1 533d 98ac 82bd
00000040: 9695 813b 0020 88bd
0.0010663136 -0.062151704 0.06382154 0.050604247 0.050367847 0.042716824 0.002351326 0.01197277
-0.072219715 0.05631916 0.04456743 -0.014427556 0.040079914 -0.0104771 0.051667266 -0.06380576
0.0039545996 -0.066467285

cir4.1.weight f4 [18]
00000000: e218 823f 451c 823f 3b36 813f b89e 813f
00000010: 044e 803f fdad 803f 3256 803f 0452 803f
00000020: a4a7 813f b7b6 7f3f 146d 803f f50e 823f
00000030: d2ba 813f 2ed6 7e3f 9257 7e3f fd15 813f
00000040: 2f57 7f3f 937a 7f3f
1.0163844 1.0164877 1.0094675 1.0126562 1.0023808 1.0053097 1.0026305 1.0025029
1.0129285 0.99888176 1.0033288 1.0160815 1.0135138 0.9954556 0.9935237 1.0084835
0.99742407 0.9979641

cir4.1.bias f4 [18]
00000000: e68c 6c3d 22bb bb3c e227 273d 47b4 263d
00000010: e0dd 8a3c 98d0 3c3c 060a ae3c 4484 9f3c
00000020: e78f ea3c 16ae 5b3b 7312 083c dfbb 893d
00000030: aed6 5c3d 5528 cabb e578 37bb 75aa 033d
00000040: ee17 85ba 57f4 2a3c
0.05775156 0.02291638 0.04080952 0.04069927 0.016951501 0.011524342 0.021245014 0.019472249
0.028633071 0.0033520511 0.00830518 0.06725287 0.053915672 -0.0061693587 -0.0027995643 0.032144982
-0.0010154226 0.010434232

cir4.1.running_mean f4 [18]
00000000: 4607 3ebd 92c7 e7bd a61f a7bd 6c68 963d
00000010: 0c4f 9ebd 1ce8 9a3b b2bd 3ebd 9482 09be
00000020: e60a 3cbe 793f d93d fbe7 69bc c6b2 12be
00000030: 3b93 c0bd d740 d0bd 3a91 3cbc c856 39bc
00000040: a0b6 a5bc b958 60bd
-0.046393655 -0.11317362 -0.08160333 0.07344136 -0.07729921 0.0047273766 -0.046567626 -0.13428718
-0.18363532 0.106078096 -0.0142765 -0.14326009 -0.09403082 -0.10168617 -0.011509234 -0.011312194
-0.020228684 -0.054772113

cir4.1.running_var f4 [18]
00000000: 91aa 023d f678 a93c 93ba 063d 2261 053d
00000010: 6293 8d3c 518a 383c 3040 a53c 282d 7c3c
00000020: cbce 9e3c bbd8 573c 4909 663c e028 fc3c
00000030: f34c b43c d756 443c ce49 883c 1969 2f3d
00000040: 3c77 563c d11a df3c
0.031900946 0.020687561 0.032892775 0.032563336 0.017282192 0.011263446 0.020172209 0.015391625
0.019385716 0.013174231 0.0140403 0.03078121 0.022009348 0.011983595 0.016636755 0.04282484
0.013089951 0.027234467

_5_to_10.weight f4 [10, 5, 1, 1]
00000000: 1eb4 e03e fbe5 2fbe 1abe 303e c9d7 e3bd
00000010: cd6b b5be 5397 7abe 1d18 84bd c6d4 abbe
00000020: 6db4 a2be d11e 123e 36eb c5be b497 84be
00000030: 3444 aebd ebf3 88be 165e 75be 1cf8 9d3e
00000040: 1d84 1dbe bfac cbbd 2bc3 8b3e 82ee 903d
00000050: a926 65be da0d 81be 19a3 08bd 0e39 25bd
00000060: 0386 7a3e 49b0 cfbe bb75 a33e 4029 6dbe
00000070: c3fe a8be 1965 8dbe 68ad d83e aac3 933e
00000080: dfd0 b1be bcc9 cd3e e4e3 cd3d a547 84bd
00000090: 0fb8 bf3e 770a 1ebd 05d5 94be a8b1 f63d
000000a0: a042 bf3e cc28 a6be 172a bd3e 3bab 3b3e
000000b0: c7c6 a53e 0f30 243e 4837 0ebe eace 2b3e
000000c0: 8e5d d23a e30b 533e
0.43887419 -0.17177574 0.17260018 -0.11125142 -0.35433808 -0.24471788 -0.06449912 -0.3356077
-0.3177828 0.14269568 -0.38656014 -0.2589699 -0.085091025 -0.26748595 -0.23961672 0.30853355
-0.15382428 -0.09945058 0.2729734 0.07076742 -0.22378029 -0.2520588 -0.033358667 -0.040337615
0.24465184 -0.40564182 0.3192576 -0.23160267 -0.33006868 -0.27616194 0.42319798 0.28860217
-0.34729668 0.40192974 0.10053232 -0.064589776 0.37445113 -0.0385842 -0.2906877 0.12045604
0.37355518 -0.32453 0.36946175 0.18327038 0.32378218 0.16033958 -0.13888276 0.1677815
0.001604961 0.20610003

_5_to_10.bias f4 [10]
00000000: 5aa3 3f3d c69f 023e e47e e8bd 5826 9fbe
00000010: a55f db3e eeef 153d db4c 32be 62c8 5b3c
00000020: 6f70 413e e87a d1bd
0.046786644 0.12756261 -0.113523275 -0.3108394 0.42846408 0.036605768 -0.1741213 0.013414474
0.18890546 -0.10228521

_10_to_15.weight f4 [15, 10, 1, 1]
00000000: 1267 55bd 3922 11be 58a3 433d b53c 443e
00000010: 8837 883e 807c d8bd 22f2 57be 21b2 8c3e
00000020: 3e7a 893e b2b5 27be 6a05 14be 3399 9fbe
00000030: a8b8 87bd 3224 6ebe b9e0 783e 88a2 83bd
00000040: 64f6 a13d 9dc3 503d 89fa d0bd 4b01 e03d
00000050: 29eb 373d 0e54 31be d15a 533e b424 90bd
00000060: 4637 9d3e e06b 273d 8546 4cbe 1296 a8bd
00000070: e2a7 903e 9dfd 193e 1bca 0bbe 2276 b83d
00000080: 2b0d 83be 8483 2cbd 3861 2b3e ea4f 21bd
00000090: 667d 613d e75d 0b3e 5e3f 9a3e db23 b33d
000000a0: 80d0 5e3e b15b 263e d043 823d cee6 29bd
000000b0: c358 3f3e f5a8 efbd 91c0 1f3d f23c cfbd
000000c0: 0526 9b3d 754a bcbd 0973 c73d cf9d bbbd
000000d0: c7f9 64be 5019 62be 370d ecba e521 5ebe
000000e0: d362 cd3c aff0 7bbe 3b03 75be e62c 003d
000000f0: b798 813e a29a aebd 4a83 0f3d 0b7e a63d
00000100: a93c f83d e39e f6bd be85 933d f5ac 6fbe
00000110: 50d2 863e 83e2 3c3d eaa1 92be 31d9 e6bc
00000120: c871 19be d88b 8dbe 86f8 b4bd f84f a0be
00000130: f9a3 dabd 821d 09be d477 39be d5d3 563e
00000140: e92a a7bd 617e 6ebe b12c 90be 13c9 9fbe
00000150: 7d1e 8abd 4a13 51be 71f5 4f3e b1b5 65bd
00000160: 8b7a 60bd 83be 4b3e b0eb 6cbd 28b0 a4bd
00000170: 2974 bc3d f700 6abe b12f 883e 6a35 43be
00000180: 7dab 2dbd be3c 70be d558 553e 52e5 07be
00000190: f53d 3cbe 89e2 83be 26d7 cf3c c7c6 973e
000001a0: f9ad 83bc 4b34 8cbe afd7 1abd 698b 8e3e
000001b0: 2ca0 5d3e ff4d b2bd 550e 7c3e 0f9f 7fbc
000001c0: 790f 243e cb80 a6bd cf95 3bbd df28 8ebe
000001d0: 7f98 d7bd 1834 153d 7e39 713e 2172 d2bd
000001e0: d5e3 503e 91fb e43d f9d7 b03d a9e6 253e
000001f0: 65e8 133c 169b 0dbe 378a ee3d e84d 27be
00000200: af87 893e d3ab 353e 8d0a 5a3e 36eb eabd
00000210: 7951 093e 90c2 9abd 2764 9dbe 2e38 593e
00000220: e57e 21be afc2 0e3e 0c85 563e 6b2b efbd
00000230: 4f20 ce3d de67 a83c 33e6 7bbe 50ae 28be
00000240: 38ee d9ba 7e7f 33bd bb74 debd 98aa 153d
00000250: f7a6 733e b280 87be
-0.05210025 -0.14173211 0.0477632 0.19163783 0.26604867 -0.105706215 -0.2108846 0.27479652
0.26851076 -0.16377905 -0.1445519 -0.3117157 -0.06627017 -0.23255995 0.24304475 -0.06427485
0.079083234 0.0509678 -0.10204036 0.109377466 0.044902 -0.1731722 0.20640112 -0.070382506
0.30706233 0.040874362 -0.19948776 -0.08231749 0.28253084 0.15038152 -0.13651316 0.09006907
-0.25595984 -0.04211761 0.16736305 -0.039382853 0.05505123 0.1361004 0.3012647 0.08747073
0.21759224 0.16245915 0.063605905 -0.041479878 0.18686204 -0.11702148 0.039002005 -0.10119046
0.07575611 -0.09193889 0.09738738 -0.09160959 -0.22360907 -0.22079968 -0.001800931 -0.21692617
0.025071537 -0.24603532 -0.23927014 0.03129282 0.25311825 -0.085255876 0.035037316 0.081295095
0.12120945 -0.12042024 0.07203244 -0.23405822 0.2633233 0.046114456 -0.28639156 -0.028179737
-0.1498481 -0.27645755 -0.088364646 -0.3131101 -0.106758066 -0.13390163 -0.18112117 0.20979245
-0.08162481 -0.23290397 -0.28159097 -0.31208095 -0.067440964 -0.20417514 0.20308472 -0.056081478
-0.054804366 0.19896893 -0.057841957 -0.08041412 0.09201843 -0.2285193 0.26598886 -0.19063345
-0.042399872 -0.23460671 0.20834668 -0.13271073 -0.1838301 -0.2575877 0.025371145 0.29643843
-0.016074168 -0.27383646 -0.03780335 0.27840737 0.21643132 -0.08706283 0.24614842 -0.015601887
0.16021527 -0.08130034 -0.045797165 -0.27765557 -0.10527133 0.036426634 0.23557088 -0.102756746
0.20399411 0.11180795 0.086349435 0.16201271 0.009027575 -0.13828692 0.11647456 -0.16338313
0.2686133 0.17741327 0.21293087 -0.11470644 0.13409986 -0.07556641 -0.30740473 0.21212837
-0.15771063 0.13941453 0.20949191 -0.11678203 0.10064756 0.02055734 -0.24599533 -0.16472745
-0.0016626781 -0.043822758 -0.10862108 0.036539644 0.23794161 -0.26465374

_10_to_15.bias f4 [15]
00000000: 80d8 2ebe 90dc 9e3e 8ec5 bc3d f5ad dbbd
00000010: a177 7fbe 4012 ee3d 47c4 24be db2d 86be
00000020: 37c3 843d 3544 183e 1d46 643d a9d5 62be
00000030: f991 873e 2a63 7e3e bd0a 953e
-0.17074776 0.3102765 0.09217368 -0.10726539 -0.24947979 0.11624575 -0.16090499 -0.2620686
0.06482547 0.14869769 0.055730928 -0.22151817 0.26478556 0.24842516 0.29109755

picFinalPro1.weight f4 [9, 18, 3, 3]
00000000: 2a5a b23d f9c4 743d 8b13 9b3c 8f58 ad3d
00000010: e4a1 9c3d f5d2 ab3c 86a1 d13d bd8b 843c
00000020: 94d9 bf3d abaf b93d 7cac 9a3d 5cf4 63bc
00000030: 983d 7d3d 4027 763d d717 7f3d e063 1dbd
00000040: 1aee 65bc cd10 f43c 0a9c edbc b5c4 d03a
00000050: 483e e73c b31e 20bc 129d cabc 56a2 d03d
00000060: 2c02 a53d 27b6 743d 2f6b 0e3d 8b35 263d
00000070: a02c 9b3c ec85 423c 03d1 cb3d 21d8 f13c
00000080: 51b3 cb3d 7a1f 11bc 20a9 d03d b53d 523d
00000090: db95 7f3c b992 603c f3c6 2abd 2284 a23d
000000a0: 7280 9d3c dc98 9b3d a8bd 353b ddee 7f3c
000000b0: 9ac3 ec3a 978b 423c 2b63 d93b f8ff 6bbc
000000c0: 81bc c239 dfdf 6e3d becd d5bc 0739 b43d
000000d0: 4961 8d3d 747c b9bc e052 0e3d 5090 d9bc
000000e0: c76a 8fbc 4af2 373c 6c76 09bd c8f6 643d
000000f0: 5f09 39bb 3d4e bd3c 0960 15bd 1787 033c
00000100: fc19 f2bb 6040 7f3c 4646 c83c 4c0f 973d
00000110: dbb6 b73d 88ae dc3b a0ea 863d 30f1 1a3d
00000120: 9c7b 26bd 3a1b d53d d06c 483d 6cf5 c4bc
00000130: eed2 e63c bf66 d43d 3212 923c 3702 aa3d
00000140: 1b3d aa3d fd57 f6bc 57f3 42bc 62b8 af3c
00000150: 7a68 603c 1cce f13b aeda 943d 863c 513b
00000160: 9874 b83b 7ae4 093d 6f99 e93c 3585 733d
00000170: 3bc1 243d 4a71 85bc a5b0 113d acd8 0b3d
00000180: 9b21 453d 5522 b53c e7c1 08bc 8b8e a43d
00000190: e674 563d 5583 e83c ce6e 4f3d 5ca5 0f3d
000001a0: 6c65 283d 7e0c 19bd bb75 413d 92b0 a03d
000001b0: 6f0e 25bd ab20 ce3d 9131 eebc daaf d33d
000001c0: 9659 17bc 91ce b43d 1c5e 5e3d 6094 5fbc
000001d0: 068c 3f3d 4e80 33bd 81b5 15bc e478 163d
000001e0: a5c8 7c3b 7ba7 7a3d 2af3 013d 5999 fcbc
000001f0: 8073 233d d665 80bb a1e7 07bd ea90 323d
00000200: 9c65 423d 9a0e a53d f1d5 bc3d 9c8e 4cbd
00000210: 4270 823d b423 5c3d 093c 333d 58e8 5e3d
00000220: 9a28 be3d 5459 a33d 0bb3 b63d 0ac2 443b
00000230: ac64 a33b 1443 11bd 6450 973b 6160 05bd
00000240: 6935 32bd a0a0 11bd d71d 873c b6f1 c83d
00000250: 460a d03d b17b b5bc 8ae1 04bc ecdf 973d
00000260: 129b 25bd a671 9b3d 488e ab3d bdbb 873d
00000270: 4c49 95bc 649f 5e3d 09a6 463d f7b2 863d
00000280: 69bc e6bc d270 7c3d 6916 c8bc fa89 3a3d
00000290: b799 84bd ebba 6e3c f83a 913d 5d3f 813c
000002a0: 1d90 79bd 5524 a33c 4ab9 6e3d 5b97 133d
000002b0: 850e 8dbd b8e6 1dbc c70a d43c cecc 95bd
000002c0: 9ee8 413d 4f3a 94bd e0fd 3b3b f59c 613d
000002d0: 6ea0 073d a9ae 7abd c987 1bba 8c1d 32bd
000002e0: a67e 04bd 7b4f 533d 5b8b 48bc d62d 97bd
000002f0: 323c da3b 531b 83bd b007 be3a bf2a 2fbd
00000300: 82cb 6d3d d9f4 9ebc 7edb e0bb 5c90 1ebd
00000310: 273c afbc 2e86 8cbd 1881 45bd 7c4a 3bbc
00000320: 338a 8abd 935d 9ebd 754c 333d d7d8 a7bd
00000330: f33a 1ebd f098 473d 1a76 a1bd 41cf 03bd
00000340: 6b9d 3ebd c4ce 7cbc d937 35bd 891c 263d
00000350: 62cd f6bc b353 573b ee86 fabc 70b9 8ebd
00000360: fc32 0cbd 2f74 3bbc d710 5a3c de45 21bd
00000370: 7dde 923d f2ee 04bd 0e9c 69bc 5054 debc
00000380: 8275 cd3c 345f 703d efa1 7f3d 4068 903d
00000390: 9491 423c 3d51 3dbd c847 6fbc 1acf 913d
000003a0: f469 6f3b 17e5 a8bd 811e 9ebd 9929 333d
000003b0: 15fb abbd d643 dd3c 6407 30bc 4031 78bb
000003c0: 45dd 19b9 ae53 f3bc 4f2b 1dbd cb16 8c3d
000003d0: cb22 98bc bcd3 693d 06e9 4fbc 6733 a63a
000003e0: cbb1 4c3d bd3a 60bd 1f96 7dbb 1ff0 ef3c
000003f0: ca9a 04bd b02b 03bc 7e3c 4e3d d7e8 6cbd
0.08708604 0.05975816 0.018930217 0.08464157 0.07648066 0.020974616 0.10235886 0.016179914
0.093676716 0.09066709 0.0755243 -0.01391324 0.06182632 0.060096025 0.062278595 -0.038425326
-0.014033819 0.029793167 -0.02900507 0.0015927764 0.02822794 -0.009772944 -0.0247331 0.10187213
0.08057055 0.059744027 0.034770187 0.040578406 0.018942177 0.01187275 0.09951975 0.029522004
0.09946311 -0.008857602 0.10188508 0.05132838 0.015599693 0.013706856 -0.04169364 0.079353586
0.019226287 0.07597515 0.0027731452 0.015620914 0.0018063665 0.011874101 0.006634136 -0.014404289
0.0003714301 0.05831897 -0.026099082 0.087999396 0.06903321 -0.022642352 0.034747005 -0.026558071
-0.01750697 0.0112272 -0.0335602 0.05589941 -0.0028234345 0.023108596 -0.03646854 0.008027813
-0.0073883515 0.015579313 0.024447571 0.073759645 0.08970424 0.006734673 0.0658772 0.03782767
-0.040645227 0.10405584 0.048931897 -0.024042808 0.028176751 0.1037116 0.017830942 0.08301204
0.08312436 -0.030071253 -0.011898837 0.021450225 0.013696784 0.0073793065 0.07268272 0.0031926944
0.0056291334 0.033665158 0.028515546 0.059453208 0.04022334 -0.016289372 0.035568852 0.03414218
0.04812775 0.022111097 -0.008347011 0.080350004 0.052357577 0.028382936 0.05064278 0.03506981
0.04111235 -0.03736543 0.047231417 0.07846178 -0.040296968 0.10064825 -0.02907637 0.103362754
-0.009237668 0.08828462 0.05428897 -0.013646215 0.046764396 -0.043823533 -0.009137512 0.036736384
0.0038571742 0.061194878 0.03172604 -0.03083484 0.03990507 -0.00391839 -0.033179883 0.043595232
0.047460184 0.08059426 0.092204936 -0.04994069 0.06369068 0.053744987 0.043758426 0.0544208
0.09285088 0.07976022 0.089208685 0.0030022883 0.0049863663 -0.03546436 0.0046177376 -0.032562617
-0.043507967 -0.035553575 0.016493721 0.09811728 0.101582095 -0.022153707 -0.008110413 0.074157566
-0.04043109 0.07590036 0.08376747 0.06627605 -0.018223427 0.054351225 0.048498187 0.065771036
-0.028166013 0.06163103 -0.024424748 0.04554174 -0.06474631 0.014570932 0.070913255 0.015777284
-0.060928453 0.019914785 0.058282174 0.036033016 -0.06887535 -0.009637527 0.025884045 -0.07314454
0.04734098 -0.07237684 0.0028685257 0.055081327 0.033111982 -0.061201725 -0.00059330143 -0.04348521
-0.032347344 0.05158947 -0.012240256 -0.073817894 0.006660008 -0.06401696 0.0014498141 -0.042765375
0.05805541 -0.019403862 -0.006862103 -0.03871189 -0.021390988 -0.0686153 -0.048218817 -0.011431333
-0.06764641 -0.077326916 0.043774087 -0.08195656 -0.038630437 0.048729837 -0.07883854 -0.032180075
-0.046536844 -0.015430156 -0.044242714 0.040554557 -0.030127231 0.0032856285 -0.030581918 -0.06968963
-0.03422831 -0.011441275 0.013309679 -0.03937327 0.071713425 -0.03245444 -0.014258398 -0.027139813
0.025080446 0.058684543 0.06241029 0.07051134 0.011875529 -0.046220053 -0.014604516 0.071195796
0.003653166 -0.082468204 -0.07720662 0.043740842 -0.083974995 0.027009886 -0.01074395 -0.0037871152
-0.00014673646 -0.029702988 -0.03837138 0.06840285 -0.018571278 0.05708669 -0.012689834 0.0012680114
0.049974244 -0.054743517 -0.0038694215 0.029289303 -0.03237418 -0.008006021 0.05035066 -0.05783924

picFinalPro1.bias f4 [9]
00000000: bf63 de3c 8c41 b8bd cf5c 293c 230c 643c
00000010: 081a 1b3e 3d08 40be d3ac f9bd 4ccf 1bbd
00000020: e5f7 e3bb
0.027147172 -0.08996877 0.010337069 0.013918909 0.15146649 -0.18753143 -0.12191167 -0.03803949
-0.0069570416

picFinalPro2.weight f4 [3, 9, 3, 3]
00000000: 5bdb b23d b646 383e f24a 6a3b 2bec a43d
00000010: 1547 4c3e 5cfe 5c3e d476 ec3d ad33 023e
00000020: a074 3f3e c763 4b3d bb26 17be 4183 56bd
00000030: 3216 e5bd 9289 78ba 90f4 9cbd 2b8a 493d
00000040: 06a9 d4bd 915f 543d 3cb6 013d 486f 18bc
00000050: b579 a73d afe2 1f3d 321b b1bc 1612 b33d
00000060: f799 b6bc 4bc0 76bd 28e5 f4bd 8edf d43c
00000070: dbe5 d1ba f434 d03d 4cd2 8dba 54d9 b23d
00000080: e09a 073d c1e7 a23d 7401 dcbd d0db 7dbd
00000090: ba90 e03d 00ce 443e 8d88 e33d 7127 98bb
000000a0: cd1d cf3d 561f 523e cead f03c 1026 293e
000000b0: ae3b b63d 1d0c dfbd 6170 14be 9233 47bd
000000c0: 084a d4bd 53f5 c2bd 8763 7dbd 43f2 15be
000000d0: eaa7 28be 127a 31be dc3f a2bd 9d30 febd
000000e0: ae24 053b bc8f 77bc 960e f1bd 4098 8ebd
000000f0: ace3 2cbc 1ae8 11be 1546 bbbd 0e57 ba3c
00000100: 6392 e3bd 03fb 383c db15 cabd 94af 58bd
00000110: 7f8c 08be b93c 493d 2f09 e6bb ace3 12be
00000120: 5773 e63d a651 993c 6169 56bc 116f 33bd
00000130: cea4 953b fe38 c0bc 47bd a639 513f dabc
00000140: d4ac a33d c594 ee3d 9bb6 f43c 4cae a13d
00000150: 0407 1d3e fca7 6d3d ce21 06bd 6149 bbbc
00000160: d3cf a03b 14ad 0f3c 649d a4bd 7990 453d
00000170: 856d 193d 7472 96bc 0330 d3bd 8a3f 2e3d
00000180: b2b3 aebd d153 fcbd 8cd4 57bc 81b5 e9bc
00000190: 5db0 94bd 4538 b13d 4c7b 3d3d 4313 85bd
000001a0: fa60 c23d 72d6 683d 7663 8f3c 9cdf edbd
000001b0: e469 293d 2181 3cbd 6c0d 043d cfe4 91bd
000001c0: 3b7f 5fbc b70d d0bd cd90 07bd 6b76 c1bd
000001d0: 1d92 953d 15e3 773b d4d5 243e 5dd9 e63b
000001e0: 295f a13d 48ea c73c a3d6 d4bb 0dab e13d
000001f0: b47e 8fbc 7b9c 033e d4f6 06be 8c87 5dbd
00000200: d83b 37be 9118 cbbd 0706 5c3c 22e6 25be
00000210: 1e70 30be f296 36be 7598 0dbe 0e90 5bbc
00000220: ca12 3b3c c883 bebd 4c4f 80bd 1f98 673c
00000230: 7501 77bd 640a 4dbc c4d4 ea3c 3b9c 633c
00000240: 4653 85bd ff0e 16bd ea27 4f3c 1f8d 5c3d
00000250: 4180 47bd b74f 00bd 17ab 95bd 1d6d 823d
00000260: c946 f0bc c6f4 c3bc d587 ac3d ea2c 15bd
00000270: 0487 863d a9e0 4a3c 13cc 903d 9d90 bbbc
00000280: dee8 30bc 85ef c73d 0419 cb3d c3a5 21bd
00000290: 372b a53d 6fd3 5c3d 628c d7bd efa7 813b
000002a0: 5dc8 c73d d101 843d d5e0 883d 0a48 bcbd
000002b0: 2a28 eabd aae9 fe3c 4f48 b23d e529 84bd
000002c0: e240 21bd bd4f c33c cbcd 683d 94f7 a63d
000002d0: 06dc b8bc 6867 e3bd 992d d1bc 5114 e9bd
000002e0: 2f06 433c 0c86 84bd f298 d6bd b70b f2bc
000002f0: 0057 7e3d fb05 b33d 0de7 813d e930 a2bd
00000300: 82ec 3a3d ada0 f63c 0473 5c3c ff92 173b
00000310: 9e2e 87bb 8e35 38bd df8a fc3d 63d8 fc3d
00000320: 1443 00bd 8aa3 74bc 192f ab3d 5df8 c13d
00000330: 61b7 02bc 5135 bebd c9ec 1e3d d309 2fbd
00000340: 679c b9bd eac4 30bd 2730 c03c d8c6 81bb
00000350: d4b2 463d de95 4cbd d9ba 993d c472 02be
00000360: 1b16 193d ca5c dcbc d9f6 e7bd 7de7 abbd
00000370: 4a87 47bd 2879 513d 2edc 133d bbc0 66bd
00000380: f336 3bbd de62 873d bc91 9b3d d2fd 85bd
00000390: 7432 2d3c 2273 e7bc cda2 aebd 234d a9bd
000003a0: 0712 c7bd 6d66 c83c 926d ca3d 7339 c03d
000003b0: 35c1 babd d647 4bbd b3c9 0ebd 6f21 be3d
000003c0: bb3e 5bbd 6497 bf3d f29e 34bd
0.08733245 0.17995724 0.0035750237 0.08052858 0.1994899 0.21581405 0.11546102 0.12715025
0.18696833 0.049655702 -0.14760868 -0.052371267 -0.11185874 -0.0009480949 -0.07663834 0.049204033
-0.10383801 0.05184895 0.031667933 -0.009303875 0.08177511 0.03903454 -0.021619413 0.08743684
-0.022290213 -0.06024198 -0.119577706 0.025985505 -0.0016013937 0.1016635 -0.001082012 0.08732858
0.033106685 0.0795436 -0.10742465 -0.061977208 0.109651044 0.19219208 0.11110029 -0.0046433737
0.10113106 0.20519766 0.029379752 0.16518426 0.08898102 -0.10890982 -0.14495994 -0.048633166
-0.10365683 -0.09519448 -0.061862495 -0.14643197 -0.16470304 -0.17331722 -0.079223365 -0.12411616
0.0020316052 -0.015109953 -0.1177036 -0.06962633 -0.010552328 -0.14248696 -0.091442265 0.022746589
-0.111119054 0.011290315 -0.0986745 -0.05290182 -0.13334845 0.049130175 -0.0070201377 -0.14344662
0.11252468 0.01871569 -0.013086648 -0.043807093 0.0045667654 -0.023464676 0.0003180301 -0.02664152
0.07991949 0.11649469 0.02987223 0.078945726 0.15334707 0.05802153 -0.032747082 -0.022862138
0.004907587 0.008769292 -0.080378324 0.048233483 0.03745796 -0.018365122 -0.10311892 0.042541064
-0.08530368 -0.12320674 -0.013173234 -0.02852893 -0.07260201 0.08653311 0.046260163 -0.064978145
0.09491153 0.056845136 0.017503481 -0.11614916 0.04136075 -0.046021584 0.032239363 -0.0712372
-0.013641174 -0.10158866 -0.033097077 -0.094464146 0.073032595 0.003782456 0.16097194 0.0070449547
0.078794785 0.024403706 -0.0064953133 0.110189535 -0.017516471 0.12852661 -0.13180095 -0.054084346
-0.17893922 -0.09916795 0.013429171 -0.1620107 -0.1723027 -0.17831019 -0.13827689 -0.0134010445
0.011418054 -0.09302479 -0.06265125 0.01413539 -0.060304124 -0.012514684 0.028665908 0.013892229
-0.06510024 -0.036635395 0.012643794 0.05384552 -0.048706297 -0.031326022 -0.073080234 0.06368468
-0.029330628 -0.023920428 0.084243454 -0.036419787 0.06568721 0.012382665 0.07070174 -0.022896105
-0.010797707 0.097624816 0.09916881 -0.039464723 0.08064883 0.053912576 -0.10524823 0.003956787
0.09755013 0.06445659 0.06683508 -0.09193428 -0.11433442 0.03111728 0.08705198 -0.06453303
-0.039368518 0.023841733 0.056836884 0.081526905 -0.022565853 -0.111037076 -0.025534438 -0.11380828
0.01190333 -0.0647088 -0.10478391 -0.029546602 0.06209469 0.08741375 0.063428976 -0.07919485
0.045635708 0.030105913 0.013455156 0.0023128388 -0.0041254302 -0.04497295 0.12331175 0.1234596
-0.03131397 -0.014931569 0.083585925 0.094712 -0.007978291 -0.09287513 0.038800035 -0.04273398
-0.090630345 -0.043156542 0.02346046 -0.0039604716 0.048510388 -0.049947612 0.075063415 -0.12739092
0.037374597 -0.026899714 -0.11326379 -0.08393762 -0.048713006 0.051140934 0.03609865 -0.056336146
-0.0457067 0.06610654 0.07596156 -0.06542553 0.010571111 -0.028253142 -0.085271455 -0.08266666
-0.09720235 0.024462903 0.0988418 0.093859576 -0.091188826 -0.049629055 -0.034860324 0.09283721
-0.05352662 0.09355047 -0.044096895

picFinalPro2.bias f4 [3]
00000000: e3b4 313e ce5a 7f3e ea93 b63c
0.17354159 0.24936983 0.022287328
