results/net_params.pkl (torch, 296670 bytes, 135 tensors)

_1_1_conv.0.weight f4 [6, 6, 1, 1]
000000 99 c5 e1 bd 75 5b 84 3d ce 44 5d be 2b 40 69 be
       -0.11024017 0.064627565 -0.21608278 -0.22778384
000010 9e 54 95 3e 64 60 67 3e 2f 98 a0 3d 44 f4 51 3c
       0.2916612 0.22595364 0.07841527 0.012814585
000020 b2 76 80 be 55 ca e8 3c 28 b5 90 3e b6 9d 2d be
       -0.25090557 0.028416792 0.2826321 -0.16954693
000030 03 1a c0 3d de e7 c2 3e 2d e4 b4 be ee 25 9e 3e
       0.09379961 0.38067526 -0.35330334 0.30888313
000040 b6 15 ef bd 3b b7 7e 3b 91 4d 91 be ab c1 11 3e
       -0.11674063 0.0038866538 -0.2837949 0.14234035
000050 3e 80 3b 3d 39 5c 54 3e 6d bf d1 3d b1 57 9b 3e
       0.0457766 0.20738305 0.1024159 0.3034034
000060 ee 55 46 be 1f 30 bb be 0e 5c 63 be 25 43 62 be
       -0.19368717 -0.3656015 -0.22203085 -0.22095926
000070 8a 77 9f be 7c 87 4c be 00 58 a7 be 6e 45 26 3e
       -0.3114589 -0.19973558 -0.32684326 0.16237423
000080 b9 c3 52 bd 06 91 7d 3e 97 ff 38 be 9e c3 0d be
       -0.051456187 0.24762353 -0.1806625 -0.13844153

_1_1_conv.0.bias f4 [6]
000000 7d ad c9 3b 78 eb 6f 3d 81 fc 4c be 68 3c 71 3e
       0.0061547146 0.05857417 -0.20018198 0.235582
000010 66 2d 15 be 52 c8 cd 3e
       -0.145681 0.40191895

_1_1_conv.1.weight f4 [9, 18, 1, 1]
000000 b8 68 6d be 13 07 42 be 25 89 3e 3e 20 e7 1e 3e
       -0.23184478 -0.18948011 0.18607004 0.15517855
000010 9f ec ae 3a eb 6c d8 bd cc d7 59 3d 1b 41 39 bd
       0.0013345665 -0.105676495 0.053184316 -0.045228105
000020 97 36 3f be 15 33 26 3e 54 c3 30 3d dc ef 36 3e
       -0.18673168 0.16230424 0.04315503 0.17864937
000030 94 da 17 3e d9 da ca bd 28 55 61 3e 31 81 0e 3e
       0.14829475 -0.09905023 0.22005141 0.1391647
000040 8f fd d0 3d 24 f5 2e 3e 64 9c 96 bd 66 ce e8 3d
       0.102046125 0.17085701 -0.07354048 0.113674924
000050 70 37 55 3e 87 c8 2c be 01 64 9a 3d c0 97 00 be
       0.20821929 -0.1687337 0.075386055 -0.12557888
000060 ec 2c 3e 3e 26 69 09 be f5 92 2a 3d e3 3d 2e 3e
       0.18571824 -0.13419017 0.041644055 0.17015795
000070 e7 9a 22 3d 69 7c 41 bd 50 af 4c be 39 21 5a 3e
       0.039698508 -0.047237787 -0.19988751 0.21301736
000080 d7 83 32 3c db 64 79 3d df 66 34 be 20 63 4a be
       0.010895691 0.0608872 -0.17617367 -0.19764376
000090 34 72 48 3e e6 8a 94 3d 41 87 40 3e 35 1c a3 bd
       0.19574815 0.07253055 0.18801595 -0.079643644
0000a0 9f e8 f3 3a 4e c7 08 be 8d 95 d8 bd 50 95 1f be
       0.0018608755 -0.13357279 -0.105753995 -0.15584302
0000b0 d8 5c 3e bc 8e 1f 2a be 5d 23 3d 3e e4 10 94 3d
       -0.011618815 -0.166136 0.18470521 0.07229784
0000c0 1e 7f 30 3e 35 41 89 bd 92 3c 16 bd 91 9f e0 3d
       0.17235991 -0.067018904 -0.036678858 0.10967935
0000d0 68 75 31 3e 2e ca 0d 3e 44 61 2a 3d 8f 74 57 3e
       0.17329943 0.13846657 0.041596666 0.21040557
0000e0 57 b5 d4 3d 8c d3 b0 bd 89 a2 41 3e e7 20 8a bc
       0.1038615 -0.08634099 0.18909658 -0.016861392
0000f0 62 23 60 3d d0 44 4f be c2 07 a2 3d fe a6 da 3d
       0.054721244 -0.20241094 0.07911636 0.106763825
000100 2a d7 46 be b3 bb 64 3e e5 73 38 3e fe 99 07 3e
       -0.19418016 0.22337227 0.1801296 0.13242337
000110 5f d6 59 3e 99 ec 2a 3c 34 77 f0 bd b7 ee e5 3c
       0.21273182 0.010432386 -0.11741486 0.02806793
000120 36 49 6a be c3 7a 4e be bc 44 ee 3d ee e7 01 3e
       -0.2287949 -0.20164017 0.11634204 0.1268613
000130 b2 e5 d3 bd b4 0e 64 3e 93 5e 06 be a8 4c 5b bd
       -0.10346545 0.22271234 -0.13122015 -0.053539902
000140 61 95 b7 3d af 26 39 be 8a 77 e3 bd 9f 83 fe bd
       0.08964039 -0.18081163 -0.11106785 -0.124274485
000150 62 ca 2e 3e 02 1d 6d be 4d ee 59 3e 2f e0 3c be
       0.1706939 -0.23155597 0.21282311 -0.18444894
000160 d0 82 62 3d 49 23 58 3e 50 74 0b 3e 59 e3 60 be
       0.055300534 0.2110721 0.13618588 -0.21961726
000170 72 bb 0f be e6 31 47 3d 58 45 57 be e3 d2 13 be
       -0.14036348 0.04863157 -0.21022546 -0.14435916
000180 24 7a 05 3e ac c2 59 3e 8a 1f 49 3d 11 e6 f4 3d
       0.13034874 0.21265668 0.049102344 0.11957944
000190 b1 80 13 bb 8e 2b 26 3e 74 e5 b9 3d dd 17 1c 3d
       -0.0022507126 0.16227552 0.09076968 0.038108695
0001a0 72 99 5d be 9c dc 2c 3e 97 7f 5d 3e 56 7a 13 3e
       -0.21640566 0.16881031 0.21630703 0.14402136
0001b0 ec 78 1a be 3c f4 42 3e ba 83 ab 3d 7e 71 12 3e
       -0.1508519 0.1903848 0.08374734 0.14301106
0001c0 04 97 23 3e f4 95 2d be fa eb 5e be 11 4f 4b 3e
       0.15975577 -0.16951734 -0.21769705 0.1985438
0001d0 3f 88 15 3e 2f 6c f7 3d ae a3 46 be 19 03 f9 3d
       0.14602755 0.12081181 -0.19398376 0.12158794
0001e0 c9 d9 5c be ff 25 a4 bd c9 0b dc bd ce 37 50 3e
       -0.21567453 -0.0801506 -0.10744435 0.20333788
0001f0 b0 a6 e6 3d 6d 73 97 bd 13 df 23 be 9a 2d 21 3d
       0.11262262 -0.073950626 -0.16003065 0.03935013
000200 00 6c 0b be 53 b6 0c be de c2 51 be 6a e0 e3 bb
       -0.13615417 -0.13741426 -0.20484492 -0.0069542425
000210 89 c7 ec 3d 9a 2b 06 be 51 75 91 3d de f6 d2 bd
       0.11561496 -0.1310257 0.071024545 -0.103009924
000220 ed 3a 29 3d 41 ab 92 bd 5d 48 03 3e a2 a8 ba 3c
       0.04131596 -0.0716157 0.12820573 0.022785489
000230 02 ea 22 3d 4d 23 60 3d aa 38 01 be 8a 85 64 3e
       0.03977395 0.054721165 -0.12619272 0.22316566
000240 19 8d a1 3d 41 e4 99 bd aa 84 68 3e fd cd 30 be
       0.0788824 -0.07514239 0.22706857 -0.17266078
000250 88 cd 11 3e c1 b3 b2 3d f6 bc 81 bd a6 b9 f0 bd
       0.1423856 0.087256916 -0.063348696 -0.1175416
000260 26 88 10 3d f0 cb 21 3e 61 a5 4c 3c 5d 4f b2 bd
       0.03528609 0.15800452 0.012490601 -0.087065436
000270 e5 8c b3 3d 35 db 13 bd 52 15 a7 3d b3 e3 cb 3c
       0.08767108 -0.036097724 0.081583634 0.024888849
000280 29 ed 1d be 9e 11 8c 3c
       -0.154225 0.017098244

_1_1_conv.1.bias f4 [9]
000000 de 80 a2 3d 8b 06 33 3e 80 ac 14 be 9d b3 00 3e
       0.07934736 0.17482965 -0.14518929 0.12568517
000010 60 25 d3 bd 94 1c 0c 3d 44 e5 51 3d 37 f0 19 3e
       -0.10309863 0.03420694 0.051244035 0.15033041
000020 58 a2 c7 3c
       0.024369404

_1_1_conv.2.weight f4 [18, 36, 1, 1]
000000 0f a3 c3 3d ff 30 e7 bc 96 7b 1d be 71 04 eb 3c
       0.09552585 -0.028221605 -0.15379176 0.028688641
000010 88 05 05 be 3e 8c 22 3e 41 e3 c4 bd d3 d5 92 bd
       -0.12990391 0.1587381 -0.09613658 -0.0716969
000020 46 03 d1 3b be b8 d5 3d a7 bf 8b bc bb b5 16 be
       0.006378564 0.104356274 -0.01705916 -0.14717762
000030 9e 09 3e 3c ae 04 12 3e b1 65 0d 3e 8d 81 d8 3d
       0.011598973 0.14259598 0.13808323 0.10571585
000040 c1 5f f0 3d bc 73 e9 bd 69 c0 a5 3d 8a a6 1c 3e
       0.117370136 -0.11399028 0.0809334 0.15297905
000050 c4 bb 12 be a0 4a 15 3e c6 fd 7d bc 8c 1b 9d bc
       -0.1432944 0.14579248 -0.015502399 -0.019178174
000060 d4 39 8d 3d 0d 28 82 bd ad 32 98 3a c2 69 a6 3c
       0.068957955 -0.06355295 0.0011611782 0.020314101
000070 43 38 82 3c 44 aa 72 bd ea 94 90 bd 24 e9 64 3d
       0.015895968 -0.05924441 -0.07059653 0.055886403
000080 e6 46 53 bd 5e 1d 9d bd a3 d1 1c 3d 79 e0 ac 3c
       -0.051581286 -0.07671617 0.038285863 0.02110313
000090 16 85 cd bd 25 d4 66 3c 17 8d ad 3d a2 fc c4 3c
       -0.1003515 0.014088665 0.084741764 0.024046246
0000a0 f5 36 e7 3d b3 e6 10 3e 24 45 0c be 24 c8 cf bd
       0.11289779 0.14150505 -0.1369825 -0.10145596
0000b0 aa 19 03 be 01 39 40 3d c7 8c a9 3d 6e 46 49 3d
       -0.12802759 0.046929363 0.08278804 0.049139433
0000c0 8f 9c 0c be 49 f1 d8 bc 28 48 8b bd f0 86 7b 3d
       -0.13731597 -0.026482241 -0.06800872 0.061407983
0000d0 5a e8 ed 3d 2b 3e 20 3e a1 9a 3e bd 5c bb 00 be
       0.11616583 0.15648715 -0.046534184 -0.12571472
0000e0 4a f5 a6 3d 2f da e2 3d 90 6b 04 3d b9 f1 a2 3d
       0.08152254 0.110767715 0.032329142 0.07956261
0000f0 52 53 dc bd ca 29 11 be 27 2d 87 3d f5 6c 9d bc
       -0.107580796 -0.14176098 0.06600409 -0.019216994
000100 4a c0 b8 3c 82 b2 2c bd 34 4f 10 bd 46 f6 63 3d
       0.022552628 -0.042162426 -0.035231784 0.055654787
000110 4e 64 2b bc 32 e1 99 bd 11 07 c3 3d bb 9d f6 3d
       -0.010460926 -0.07513656 0.09522832 0.120418034
000120 35 01 1e 3e 37 66 73 3d 67 90 2e 3c fe 8f a4 bd
       0.15430148 0.05942365 0.010654545 -0.08035277
000130 c8 81 06 be 07 63 11 3e bd 85 bf bb eb cd 22 3e
       -0.13135445 0.14197932 -0.0058448003 0.15898864
000140 70 10 aa bd 46 32 be bd de 15 e5 3c 0e ab a1 bd
       -0.083039165 -0.09286933 0.027964529 -0.07893954
000150 44 a5 18 3e 39 00 b5 bd 99 81 02 be d8 7f 54 bc
       0.14906794 -0.08837933 -0.1274475 -0.012969933
000160 35 0b 2b be 15 74 b5 bd ac 83 10 3e 48 22 ef bc
       -0.16703494 -0.088600315 0.14112729 -0.029191151
000170 2b 08 30 3e ca 57 0e bc f8 e0 ee 3d d4 6b 52 3d
       0.17190616 -0.008687923 0.11664003 0.051372364
000180 55 d0 32 3e a9 57 9f 3d 86 6c f3 3d 41 c5 c8 3d
       0.17462285 0.07780392 0.118859336 0.09803248
000190 08 21 00 3e 1f 14 13 be 4c 16 c4 3d 4c 56 df bd
       0.125126 -0.14363144 0.09574565 -0.10905132
0001a0 32 14 bf bd 90 0c 18 3c c7 12 1d bd 19 c7 28 be
       -0.09330024 0.009280339 -0.038347986 -0.164822
0001b0 91 37 75 3d 16 1a 3e bd be 3b 2a bd 49 45 74 bb
       0.059867445 -0.046411596 -0.04156088 -0.0037272742
0001c0 ee 22 d2 3c 79 4d 23 3d f1 95 8e bd b1 57 1a 3e
       0.025651421 0.039868806 -0.06962193 0.15072514
0001d0 c4 54 2c bd 6e 5b 2a 3c 57 3c 76 bc b5 55 9e bc
       -0.042073026 0.010397775 -0.015029035 -0.019327978
0001e0 f9 0e 22 be 0f 0e 21 be dd 9b a4 3d 9f fd a7 bd
       -0.15826024 -0.15728019 0.08037541 -0.08202671
0001f0 0b 2e 92 3c 7e b5 e3 bc 88 98 0f be 40 23 8a 3c
       0.01784422 -0.027796503 -0.1402303 0.016862512
000200 90 a6 de 3d b5 d9 1f be 62 01 71 3d e7 91 c2 3d
       0.10871613 -0.15610392 0.05883921 0.09500485
000210 3f 9a 5f bd e7 b2 8e 3d 0c 84 03 be 5f 43 cb 3b
       -0.05459046 0.06967717 -0.1284334 0.0062030996
000220 4a 4a 0d be fe c7 bb 3d 84 2f d7 3d 2d 61 26 bd
       -0.1379787 0.09169005 0.1050711 -0.040620018
000230 de 9e e4 bb bc a0 2c bd 39 22 fd 3d 8f 23 bd bd
       -0.0069769463 -0.042145476 0.12360043 -0.09235298
000240 10 5e 03 3e 79 32 c3 bc e7 87 f7 bd 7a 08 25 3e
       0.12828851 -0.023827778 -0.12086468 0.16116515
000250 e0 77 f9 3d 9e cb 93 3d c8 e7 23 be 85 d0 b9 3d
       0.121810675 0.07216571 -0.16006386 0.09072975
000260 02 ae fe bd 9f 17 28 be b1 9e 0a 3b 88 d8 fd bc
       -0.12435533 -0.1641526 0.0021151716 -0.03098704
000270 d8 df 47 3d 2e 6d c9 bd b0 31 d7 bd 02 06 a9 3d
       0.04879746 -0.098352775 -0.10507524 0.08253099
000280 6f 0f f8 bd 67 57 17 3d 32 2c d8 bd e5 0d cc bd
       -0.12112319 0.036948588 -0.105553046 -0.09963588
000290 a2 0f fc 3d 5f 68 f0 bc 91 a1 2f bd 87 c4 c4 bd
       0.12307669 -0.029346643 -0.04287869 -0.09607797
0002a0 0a a3 44 3d b5 82 9f bc 8a 00 5a 3c 98 c2 0d 3e
       0.04800705 -0.019471506 0.013305793 0.13843763
0002b0 e7 10 5d 3d 1d 8a 96 bd 8c 09 19 3e 19 de 29 be
       0.053971197 -0.07350562 0.14945048 -0.1658863
0002c0 46 e3 0e 3d 34 2f 03 bd b7 e4 29 be f4 80 c9 3d
       0.034884714 -0.03202744 -0.16591154 0.09839049
0002d0 dd db 8d bc 31 15 3b bc bf 9d 14 be e1 9c 8e bd
       -0.017316753 -0.011418627 -0.145133 -0.06963516
0002e0 10 24 63 bd 88 82 0d 3d 1a b3 2f bc e8 57 04 be
       -0.055454314 0.034548312 -0.0107238535 -0.12924159
0002f0 5c c1 50 3d d7 da e0 3d 90 b9 02 3e 1d 07 c6 ba
       0.050965652 0.109792404 0.12766099 -0.0015108321
000300 76 2c 06 be 09 97 1a 3e 64 df 66 3d d9 d4 ab bc
       -0.13102898 0.15096678 0.056365386 -0.020975517
000310 af 09 26 bc a4 f3 33 bc 09 0e b5 bc 38 45 a9 3c
       -0.010134145 -0.010983381 -0.022101419 0.020662889
000320 fa 51 35 bd ec 1a 94 bd 80 65 19 3d dd f9 cf 3d
       -0.044267632 -0.072316974 0.037450314 0.101550795
000330 d4 0c d9 3d 97 61 06 3e d0 52 dd 3c 63 0b 93 bd
       0.1059815 0.13123165 0.027017027 -0.07179906
000340 7b 10 26 be 98 aa c3 bd d8 8d f4 bd 6f ea 27 3e
       -0.16217224 -0.095540226 -0.11941117 0.16398023
000350 92 99 2f bd bb 81 ad bd 83 11 1d 3e a5 5c e8 bd
       -0.042871065 -0.0847201 0.15338711 -0.113457955
000360 57 ef be bd fe 66 48 3d c1 9c 18 bd e4 6e 04 bd
       -0.09322994 0.048926346 -0.037258867 -0.032332316
000370 0f 0f 1b bd a7 b8 e5 3d d8 7c 13 3e 9f 62 0b 3b
       -0.037856158 0.1121686 0.14403093 0.00212685
000380 45 42 1b be 1a b8 e3 3c 1d 72 d4 bd 35 92 16 be
       -0.15161999 0.027797747 -0.10373328 -0.14704211
000390 81 85 15 bd 6c ec f2 bd 12 9f 19 be ef 77 ba bd
       -0.036504272 -0.118615 -0.15002087 -0.09104907
0003a0 da d0 ff 3d d0 c2 df 3d aa af 14 3e f0 25 f7 3d
       0.12491007 0.109258294 0.14520136 0.12067783
0003b0 30 df ec bd eb b0 a1 bd a0 46 08 bd 44 92 0d 3e
       -0.11566007 -0.078950725 -0.03327048 0.13825327
0003c0 74 ba 08 be 19 52 12 3e ab 48 b7 3d 6f b4 85 bc
       -0.13352376 0.1428913 0.08949407 -0.016321389
0003d0 14 3f b8 bd 59 83 c1 bd 42 3d 1b 3e c4 cd 60 3d
       -0.08996406 -0.09448881 0.15160087 0.054883733
0003e0 88 1e 27 be fd f7 f0 3d 02 35 69 bd 57 10 b3 3c
       -0.1632024 0.1176605 -0.056935318 0.021858377
0003f0 20 a2 5a bd 1a 1e a6 3b 33 cd 1d 3e 9f ec 03 be
       -0.05337727 0.0050695064 0.15410309 -0.12883233

_1_1_conv.2.bias f4 [18]
000000 82 2f f6 3d 06 d8 f8 3d 94 c3 4c 3d 9a 3d f3 3d
       0.1202078 0.12150578 0.049991205 0.11876984
000010 8a 73 ed 3d cb 56 4b bb b0 2a 05 bc 12 21 26 be
       0.11594303 -0.0031027074 -0.008127853 -0.16223553
000020 e8 6c f3 3c 00 b4 a8 3b 78 86 90 bc 8e 2b 82 3d
       0.029715016 0.005148411 -0.017642245 0.06355964
000030 e0 80 dd bd a4 6f 02 bd aa 51 d0 3d bf 85 1f 3e
       -0.108155966 -0.03184475 0.10171826 0.15578364
000040 36 a2 e3 bd 0a 42 c6 3d
       -0.11114924 0.09680565

_1_1_conv.3.weight f4 [18, 18, 1, 1]
000000 18 27 47 3e 20 3e 27 3e ac 03 c2 bd 11 1d de 3d
       0.19448507 0.16332293 -0.094733566 0.10845388
000010 47 69 5f bd 16 94 15 3e 72 6f 52 be 16 07 4d be
       -0.05454376 0.14607272 -0.20550326 -0.20022234
000020 19 ed 01 3e 99 fb 2f be 9a 3c 51 be fa af 64 3e
       0.12688102 -0.1718582 -0.20433274 0.22332755
000030 2b 7d a5 3d ee 0c 46 bd 88 e9 fb 3d cd 7f f9 bd
       0.080805145 -0.048352174 0.12300402 -0.12182579
000040 72 c1 f0 3d 5a 8e 65 3e 58 1f 22 be 9e 20 06 be
       0.11755647 0.22417584 -0.15832269 -0.1309838
000050 33 30 15 3e 14 cf bd bd f8 89 26 be df dd 28 3e
       0.14569168 -0.09268013 -0.16263568 0.16490887
000060 b4 22 51 3e 8c c2 2e be 17 09 7e bd bc b5 0e 3e
       0.20423394 -0.17066401 -0.062020388 0.13936514
000070 f1 d8 24 be bd aa 14 3e 27 e9 e3 bd 78 69 e4 bd
       -0.16098382 0.14518256 -0.11128455 -0.11152929
000080 a9 d8 54 be 7b 3b 31 3d cd ae a2 bd 93 58 cf 3c
       -0.20785774 0.043269616 -0.07943497 0.02531079
000090 85 20 1a 3d 0d df 93 bd a5 4b 8a 3c e1 e6 45 be
       0.03762867 -0.07220278 0.016881773 -0.19326355
0000a0 b1 ef 37 be 8a 24 ee bd be dd 49 3e 5b 1d f0 3d
       -0.17962529 -0.11628063 0.19713494 0.11724349
0000b0 bc 2d 52 3e 69 78 2e 3e a0 e5 e4 bd 96 ea ef bd
       0.20525259 0.1703812 -0.1117661 -0.117146656
0000c0 c3 8b 27 3d 9b cf 5c bd 20 2e 17 3c 96 11 60 be
       0.04090477 -0.053908926 0.009227306 -0.21881709
0000d0 b4 6a 2a be 41 6c 52 be 88 45 aa 3d 82 81 9d bd
       -0.16642267 -0.20549108 0.08314043 -0.07690717
0000e0 41 10 2f be 10 7a 8a 3c ce 9a fb bd d5 c0 06 be
       -0.17096044 0.016903907 -0.12285386 -0.13159497
0000f0 ed 02 58 be e0 6c 92 3c 3c e0 06 be ce 85 39 be
       -0.21094866 0.017874181 -0.13171476 -0.18117449
000100 a6 2d 35 3e c1 84 46 be d1 be 94 bd 2e bf d3 3d
       0.17693195 -0.19386579 -0.07262958 0.10339199
000110 a1 57 8b 3d 9d 07 61 3e 5f 01 8d bd b8 d3 c1 3c
       0.06803823 0.2197556 -0.06885027 0.023660526
000120 b2 70 bb bd f8 d5 60 be cb 70 52 be c5 78 90 bd
       -0.09152354 -0.21956623 -0.2055084 -0.07054285
000130 f7 7a 6a be b8 df 49 be 2a f4 02 be 83 55 06 3e
       -0.2289847 -0.19714248 -0.12788454 0.13118558
000140 32 1f 9e 3d e1 80 fb bd 1b 36 eb bd e6 8f 30 3e
       0.07720794 -0.12280441 -0.11484929 0.17242393
000150 f1 01 13 be 3b 89 34 3e 32 e8 ca bd 49 c6 9a 3d
       -0.1435621 0.17630474 -0.09907569 0.07557351
000160 7b 17 82 bd 39 e6 53 be 01 00 be 3d 8b ce a8 3b
       -0.06352135 -0.20693292 0.092773445 0.005151575
000170 c3 8c ce bd a9 5c 5f 3d aa 2c 64 3e 50 18 2c be
       -0.10085442 0.054531727 0.22282663 -0.1680615
000180 59 56 b4 3d 84 7d cc 3d 94 73 9a bd e2 ed 03 3e
       0.08805532 0.09984878 -0.07541576 0.12883714
000190 e8 49 03 3e 1e cd 90 3d 53 1f 4d 3e a3 34 27 be
       0.12821162 0.07070373 0.2003148 -0.16328673
0001a0 e3 ca 80 3d 10 96 d1 3d be c4 97 3d 83 f7 99 bd
       0.062886976 0.102337 0.074105725 -0.07517912
0001b0 90 c3 c1 3d dd 38 11 be 72 5b e7 3c b7 8e 8f bd
       0.09461129 -0.14181848 0.028241847 -0.070096426
0001c0 ab d0 4a 3e c2 60 8e bc 80 eb 4f be b3 e8 15 be
       0.19806163 -0.017380122 -0.2030468 -0.14639549
0001d0 fd f4 98 3c 2f 73 df 3c 31 3c 19 3d e8 20 8a 3d
       0.018671507 0.027276604 0.03741092 0.067445576
0001e0 bf 84 e8 3b 85 c3 54 3e 55 83 26 3e ff 08 90 bd
       0.0070959027 0.2077771 0.16261037 -0.07032966
0001f0 9b 2f 70 be 88 9b 35 3e 9d dc 6a 3e 14 f3 1a be
       -0.2345566 0.17735112 0.2293572 -0.1513179
000200 d5 3c ff 3d 82 0a 1e be 15 06 06 bd 73 0e 47 3e
       0.12462775 -0.15433696 -0.032720644 0.19439106
000210 73 1d 41 be a2 16 b2 bd 30 9f 3f 3e ed 9b 0d be
       -0.1885889 -0.08695723 0.18713069 -0.13829012
000220 90 96 2f be eb dd 4f 3e 44 f6 b4 bd 4b bb 37 bd
       -0.17147279 0.20299499 -0.08836034 -0.04485635
000230 28 ca 3d bd 22 88 c1 bd dc 84 5e 3d 14 52 f7 3d
       -0.04633537 -0.094497934 0.054325923 0.12076202
000240 28 42 38 3e 33 b6 a6 3d 66 d9 e5 bd ab 2d 4c 3e
       0.17993987 0.081402205 -0.11223106 0.19939296
000250 6f 47 62 3e a5 46 2c 3e e3 65 1c 3d 33 04 dc bd
       0.22097562 0.16823824 0.038183104 -0.107429884
000260 a8 1e 3a be ad a4 be 3d 2a 19 86 bc 9c bb 26 3e
       -0.18175757 0.09308753 -0.016369421 0.16282505
000270 4d c7 c5 bd 66 89 44 be 64 1c bb bd 3b dd 20 3e
       -0.09657154 -0.19193038 -0.091362745 0.15709393
000280 fb e0 15 3e e3 b8 43 be 73 ae e7 bd a6 0e 8e 3b
       0.14636604 -0.19113497 -0.113125704 0.0043352423
000290 0e 7c 85 3d 55 c5 54 3e 5e 1a c6 3d 69 4d e5 3c
       0.06517802 0.20778401 0.09672998 0.027991014
0002a0 6b 3f b0 3d 26 3d aa bd 20 9b 80 3b 11 0c 35 be
       0.08605846 -0.083124444 0.0039247423 -0.17680384
0002b0 9a b4 03 be 72 10 5c bc 83 2d 3f be 9d 38 46 be
       -0.12861863 -0.013431655 -0.18669705 -0.19357534
0002c0 33 4f fc bc 94 c5 f0 bd 9a 8a 97 bd 92 34 ad 3b
       -0.030799484 -0.11756435 -0.07399483 0.005285808
0002d0 84 e0 ea 3d 4a 47 e3 bc fe fb 51 3e 93 30 9e 3c
       0.11468604 -0.027743954 0.20506284 0.019310271
0002e0 7e 11 6f 3e f4 62 36 3e 17 8f 2d 3a f6 9a 43 bd
       0.23346516 0.17811185 0.00066207483 -0.047755204
0002f0 8b 13 07 3e 8c f6 e4 bd 11 e3 2b 3e 25 73 29 be
       0.13191049 -0.111798376 0.16785838 -0.1654783
000300 ff a3 37 3e ec ae 48 be 5b 08 bc 3d 38 5e 35 be
       0.17933653 -0.19597977 0.09181281 -0.17711723
000310 80 5f 55 be 11 15 a5 3b 94 cf 50 be 49 59 03 be
       -0.20837212 0.0050379117 -0.20391685 -0.12827028
000320 72 fa 51 bd e5 3a 56 3d 07 bf 7d 3d 53 ab 41 be
       -0.051264234 0.05230226 0.061949756 -0.18913011
000330 4e 43 c2 3d 19 f0 34 3e 46 39 33 be aa 8a c4 39
       0.094854936 0.17669715 -0.17502317 0.00037487346
000340 26 29 e2 bd 7d 46 03 3e b4 b3 0a 3e 87 a1 ac 3d
       -0.11043005 0.12819858 0.13545114 0.084292464
000350 01 be 14 3e d6 bc 1a 3e b4 b6 2d bd 02 66 4f bd
       0.14525606 0.15111098 -0.042410567 -0.05063439
000360 35 bf 47 3e 84 bd b3 3d 1d da 38 3e 64 8b 6c 3e
       0.19506533 0.087763816 0.18051954 0.23100048
000370 5c 28 b9 bd 9e e6 31 be 4a d2 87 bd 5f 41 da bc
       -0.09040901 -0.1737313 -0.06631906 -0.0266425
000380 25 fc c6 3d 18 75 07 bc bd 52 0f 3d 3d a6 6b bb
       0.097160615 -0.008267663 0.034991015 -0.003595724
000390 94 59 9d 3d ad 03 6e 3d 7f 61 44 be 27 93 00 bd
       0.07683101 0.058108974 -0.19177817 -0.031390335
0003a0 3d ce 5b bd 78 68 02 bb 6a e7 28 be 1e 22 6d be
       -0.05366348 -0.0019898694 -0.16494527 -0.23157546
0003b0 17 b9 f1 3d d8 53 56 3e 74 18 4c be 73 d6 15 bc
       0.11802881 0.20930421 -0.19931203 -0.009145367
0003c0 95 9c 66 3d a8 61 0a 3e 11 a8 64 be 7f 5b 2d be
       0.056301672 0.13513815 -0.22329737 -0.16929434
0003d0 03 c6 23 3e 72 6c af bd 53 a4 36 be 6d ac 23 3e
       0.15993504 -0.08565606 -0.17836122 0.15983744
0003e0 c0 5c 4b bd bd ad 67 be 53 e2 a1 3d 04 a2 39 bd
       -0.049649 -0.2262487 0.07904496 -0.045320526
0003f0 26 3a b3 bd 9f 9c 4c 3e d8 9e 2e 3d d9 10 a5 bc
       -0.08751325 0.19981621 0.042631954 -0.020149635

_1_1_conv.3.bias f4 [18]
000000 c9 7d 26 3e bd 42 27 3d b2 01 04 3e fb 1c 06 be
       0.1625892 0.04083513 0.12891272 -0.13096993
000010 33 9f b8 3c 41 2f 34 3e a0 61 36 bc 83 1c 5f be
       0.02253685 0.17596151 -0.011131674 -0.2178822
000020 fd 9f 7d bc 88 d0 07 3e 8e 32 4d bc ad dd 90 3d
       -0.015480039 0.13263142 -0.01252426 0.07073531
000030 08 6c 32 3e bc d1 a6 3c e7 53 f7 3d 26 43 6a be
       0.17424023 0.020363681 0.1207655 -0.22877178
000040 76 73 4e 3e 33 eb 2a 3e
       0.20161232 0.16691284

_1_1_conv.4.weight f4 [18, 18, 1, 1]
000000 32 57 1c 3e 0d 6b 16 be 1b 1f 53 be 20 c9 79 3c
       0.15267637 -0.14689274 -0.20617335 0.015245706
000010 a5 95 16 be b2 06 60 3e e2 4e fb bd cf 7e 52 be
       -0.14705522 0.21877554 -0.12270905 -0.20556186
000020 4f 4d ec bd e0 bc c9 3d 6f fb 35 bd 10 64 4b 3e
       -0.11538183 0.09850478 -0.04442924 0.1986239
000030 ef db 12 3d 41 8a f2 3c 39 9c 51 3b 4a ae 61 be
       0.035854276 0.02960694 0.0031983985 -0.22039142
000040 34 79 90 bd a3 4f f0 3d ee 5a d9 3c 02 c6 eb bd
       -0.07054368 0.117339395 0.026532616 -0.11512376
000050 57 36 4e bd cd af 0b 3e 39 df 43 be d8 51 07 be
       -0.05034479 0.13641281 -0.19128121 -0.13214815
000060 ae 19 5c bd c6 1f 4b 3d cd 4f 50 be d2 be c0 3d
       -0.053735428 0.04959085 -0.20342942 0.09411396
000070 9b 3a 5d bd 41 02 5f bd 5a 96 46 be 7d 1b 9f bc
       -0.05401097 -0.05444551 -0.19393292 -0.019422287
000080 a2 00 34 3e 61 3c 9c bd 9e 3f 2e 3e cb ee 12 be
       0.17578366 -0.07628704 0.17016456 -0.14348905
000090 7b 30 61 3e 4e 7d 58 be f9 54 25 bd d6 dd 60 be
       0.2199115 -0.2114155 -0.04036424 -0.21959624
0000a0 28 2c f7 3d c0 ff c1 bd c5 cf 81 bd 54 08 e6 3d
       0.12068969 -0.094726086 -0.06338457 0.11232057
0000b0 7f cc 0c be 8b c7 9f 3d b2 b7 a8 3d d5 9e 1e 3e
       -0.13749884 0.07801732 0.08238162 0.15490277
0000c0 07 6f aa 3b e8 58 ed 3c 23 c1 96 bd 9d 29 54 be
       0.005201224 0.028973058 -0.07361057 -0.20718999
0000d0 fa 5e 73 bd fa 41 34 be f7 d4 1c 3e 9a 95 61 3e
       -0.05941675 -0.17603293 0.15315615 0.22029725
0000e0 62 0e c2 bd 79 2f e0 3d 66 84 4e be ff 61 c3 3d
       -0.094753996 0.10946555 -0.20167693 0.09540176
0000f0 af 5f 0a bd 92 0d de 3d 66 f0 5e be e1 8e 73 3d
       -0.033782657 0.10842432 -0.21771392 0.05946243
000100 81 05 3f 3d ec 4a 7f 3d cb 0d 60 3d 62 3c 16 3e
       0.04663611 0.06232731 0.054700654 0.14671472
000110 35 a2 d1 3c 22 0a 83 bc 8b 11 fb 3d 99 34 5e be
       0.025590042 -0.015996043 0.122592054 -0.21699752
000120 ea b9 5d be 14 87 41 be b3 ca de bd 2b 0f 14 3e
       -0.21652952 -0.18899184 -0.108785056 0.14458911
000130 d8 93 0d be 14 8e 7c bd bf 0f 27 bd ce 53 c6 bd
       -0.13825929 -0.061658934 -0.0407865 -0.09683953
000140 71 9d b7 3d 25 cd 7d bd 1b d3 51 3e 06 93 95 3d
       0.089655764 -0.06196322 0.20490687 0.07303433
000150 38 a1 55 3e f6 39 d2 3d c5 52 8f 3c ae 1d 6c be
       0.20862281 0.102649614 0.017495522 -0.23058197
000160 71 83 ab bd 62 89 3d 3e 8a 7b 6c bd 6f 9a 18 be
       -0.0837468 0.18509439 -0.057735004 -0.14902662
000170 e3 55 71 be 15 7c 21 3e 27 a3 15 3d 76 f2 bf bd
       -0.2356792 0.1576999 0.036532547 -0.09372418
000180 cc 0c 3b bd 10 6f e4 bd aa de e0 3d c5 f9 23 3d
       -0.0456665 -0.11153996 0.1097997 0.04003312
000190 6c b6 3d 3d 7f f4 4f be 38 24 17 be 36 e4 b6 3d
       0.04631655 -0.20308112 -0.1475991 0.089302465
0001a0 4b 2e 7c bd 91 a1 41 3e 9b e0 32 3e 86 98 18 3e
       -0.061567586 0.18909289 0.17468493 0.14901933
0001b0 9b 70 5b 3e 54 d4 23 3d 92 a4 98 3d 0c 17 ea bd
       0.21429674 0.039997414 0.07453264 -0.11430177
0001c0 60 01 66 be c9 c5 bd bd f6 91 48 3e b0 39 2a 3d
       -0.22461462 -0.0926624 0.1958693 0.04155892
0001d0 dd 71 21 3e 54 1c f7 bd 28 39 55 be 87 78 6b 3e
       0.15766092 -0.1206595 -0.20822585 0.22995196
0001e0 87 bc 23 3e 6a 22 51 3e 43 36 0a 3e bb 45 19 bd
       0.15989886 0.20423284 0.13497262 -0.037420016
0001f0 85 2c 92 3c 93 ca 65 be 19 7a 31 bd 93 93 e1 3d
       0.017843494 -0.22440557 -0.043329332 0.11014476
000200 5d ee 3c bd fb 24 bc bc 32 27 e0 3d 49 2e 27 be
       -0.04612576 -0.022966852 0.10944976 -0.1632625
000210 a7 15 7a 3b 25 3a 47 3e 72 7e 22 be 9f e5 31 be
       0.0038159878 0.19455774 -0.15868548 -0.1737275
000220 77 31 42 3e 31 f0 8c bd cb 2b 4d be 62 6c 08 3e
       0.18964182 -0.068817504 -0.20036237 0.13322595
000230 ad 36 4d 3d 70 6e 27 3e d0 be 27 3d 48 b0 cd bc
       0.05010097 0.16350722 0.040953457 -0.025108472
000240 76 99 28 be 3a c1 42 3d 33 41 1f be c0 57 b2 3d
       -0.1646479 0.047547556 -0.15552215 0.08708143
000250 55 6d c9 3d e2 86 66 3e cd d9 69 be cd 5b 56 bc
       0.098353066 0.22512391 -0.2283699 -0.01308341
000260 37 f3 f2 3d 9a f8 2f be 03 92 6a 3e d8 05 9e 3d
       0.11862796 -0.17184678 0.22907262 0.07715958
000270 23 06 ae bd 4b bf 36 3e 8a e8 5a be 77 e3 8c bd
       -0.08497264 0.1784641 -0.21377769 -0.06879323
000280 86 eb cf 3d 77 a6 e8 bc 28 04 b9 3d db 36 45 be
       0.101523444 -0.02839969 0.09033996 -0.19259207
000290 bc 5c 02 3d bf 77 37 be 9d 6c 45 bd 64 93 a9 3d
       0.03182672 -0.17916773 -0.048199285 0.08280066
0002a0 5f cd ec 3c d5 d7 bd bd 3c 78 5e be 91 55 33 be
       0.028906522 -0.09269682 -0.21725553 -0.1751311
0002b0 8b c0 d5 bd 6c 8d 59 be 3d 6c 35 be 11 f8 97 bd
       -0.10437115 -0.21245354 -0.17717071 -0.07420362
0002c0 95 04 2c be 35 48 35 be 2c 10 e1 3d 5a e3 dd 3d
       -0.16798623 -0.17703326 0.10989413 0.108343795
0002d0 61 a3 f3 3d 52 ee 52 bd a2 37 84 3d 27 33 f9 3d
       0.118963964 -0.05149681 0.064559236 0.1216796
0002e0 ed 15 20 3e b8 b4 71 bd 4e d3 24 3d e2 70 89 bd
       0.15633364 -0.059010237 0.04024058 -0.06710984
0002f0 bd c8 96 3d 1e 9a 3e 3d 48 51 44 bd dd 8f 1c 3d
       0.073625065 0.046533696 -0.04792908 0.038223136
000300 c9 dd 38 bb f1 50 35 be 73 7d b6 bd 25 9d 6e 3e
       -0.0028208366 -0.17706658 -0.08910646 0.23302133
000310 e7 54 16 3e 77 6a 1a be a6 bc 73 bd b3 23 30 be
       0.14680825 -0.15079676 -0.05950608 -0.17201118
000320 5c 97 0e be 4a 43 c6 3d 0b f0 b0 3d 20 12 6a be
       -0.13924927 0.09680803 0.086395346 -0.22858477
000330 4f 87 2d be 02 bc 4d 3e 44 20 ed bc 7f a9 21 3c
       -0.16946147 0.2009125 -0.02894605 0.009867071
000340 8c f7 6d be ca c4 91 bd 96 ae 3e 3e 53 04 04 be
       -0.23238963 -0.07117613 0.18621287 -0.12892275
000350 21 3b 74 3d bf c5 3f 3e a1 08 01 3e ac c2 3a 3e
       0.059626702 0.18727778 0.12600948 0.18238324
000360 5e 4f 06 3e 03 7a 1e 3e a6 bd 42 3e 60 ae 17 3e
       0.13116214 0.15476231 0.19017658 0.14812613
000370 41 e2 42 be 77 4c 2c 3e f0 d9 6c be 6f 6f dc bd
       -0.19031622 0.16826044 -0.23130012 -0.10763442
000380 3a e3 bb bc 9b be c3 bd 90 54 50 3e 83 4a 5f 3e
       -0.022935499 -0.095578395 0.20344758 0.21805768
000390 24 d3 c9 bd fd e8 1d be f5 03 a5 bb 16 af 99 3d
       -0.09854725 -0.15420909 -0.005035872 0.07504098
0003a0 54 a4 40 be 0a 35 ca 3d 89 cc 0a 3e f3 d5 40 be
       -0.18812686 0.09873398 0.13554586 -0.18831615
0003b0 d6 ee c2 bc 90 91 20 be 03 dd 85 bd ab 53 14 be
       -0.023795526 -0.15680528 -0.06536295 -0.14485042
0003c0 b8 da 90 bd b8 89 87 bd 86 16 eb bd 8f d0 db bd
       -0.07072967 -0.06618065 -0.114789054 -0.10733139
0003d0 70 44 59 be 3e 99 0f bc 2e 18 1c be 1c c4 bc bd
       -0.21217513 -0.008764563 -0.15243599 -0.092170924
0003e0 00 8e 01 3e d9 a1 5b bd 2a ec 1e bd cc 68 ad 3d
       0.12651825 -0.053621147 -0.038799442 0.08467254
0003f0 3c b9 09 be ba 0f 0d 3e 14 ae 5b be 42 7d c2 bd
       -0.13449568 0.1377553 -0.21453124 -0.09496547

_1_1_conv.4.bias f4 [18]
000000 ad 09 6e bd 69 46 1d 3e 02 ea ca 3d cd d7 00 3d
       -0.058114696 0.1535889 0.09907915 0.031455804
000010 6f 6c ae bc 89 64 36 bd b0 10 58 be f6 94 c5 3d
       -0.02129194 -0.04452947 -0.21100116 0.09647553
000020 f2 af 85 bd fb 2a 2e be 79 97 46 be f5 a1 94 bc
       -0.065276995 -0.17008583 -0.1939372 -0.018143633
000030 7f 0b 5d 3b b7 db e1 bd 29 d6 0c 3d 95 77 40 3e
       0.0033728776 -0.110282354 0.034383927 0.18795617
000040 87 15 0d be 11 42 69 bc
       -0.13777743 -0.014236943

_3_3_conv.0.weight f4 [6, 6, 3, 3]
000000 73 ed b8 bd c1 bb 4b bb 00 8f 09 3e 9d dc d6 bd
       -0.09029665 -0.0031087252 0.13433456 -0.104912974
000010 fe f3 ca bd 45 10 ba 3d 6f 34 ed bd 2e 8f 97 bd
       -0.09909819 0.090851344 -0.115822665 -0.07400356
000020 3a 88 4e 3c 2d 76 09 be b1 e8 2d bd 6e 38 fd bc
       0.012605721 -0.13423987 -0.04245824 -0.030910697
000030 f9 8c 8d 3d b9 50 c1 3d 16 35 59 bc d5 8a b3 3d
       0.06911654 0.09439225 -0.013257286 0.087667145
000040 c6 e0 c4 bd 59 c9 ea bd 58 1e d0 3d a3 f7 08 3e
       -0.09613185 -0.11464185 0.101620376 0.13375716
000050 2d c7 fe bd 4b a3 b9 3d f2 a3 c6 3d 6a 21 a7 3d
       -0.124403335 0.09064349 0.09699239 0.0816067
000060 90 4a 66 3c 44 9e ea bd 6e 8f 4f bd a9 5f 2b bd
       0.014055863 -0.11455968 -0.050673895 -0.041839276
000070 22 20 01 3d 5c 1c df bd ec 2c 45 bd ee 75 00 be
       0.031524785 -0.10894081 -0.048138544 -0.12544987
000080 7d f7 1c bd 94 78 32 bd 51 6e 94 bd 08 7b a7 bb
       -0.03832196 -0.043572024 -0.07247604 -0.005111102
000090 84 d5 51 3d d3 a7 a9 bb 18 a5 23 3b 98 ab e2 bc
       0.051229015 -0.005177477 0.002497023 -0.027669713
0000a0 f3 b7 13 3b b7 37 bc bd 1d e4 df bd 39 78 ec 3b
       0.0022540062 -0.09190314 -0.10932181 0.00721648
0000b0 55 46 e7 3c 29 d0 cc 3d cc 26 26 bd 28 e9 09 3e
       0.02823178 0.10000641 -0.040564343 0.13467848
0000c0 5b 64 de bd 14 79 90 3d c4 3c a9 bd 3b 6c c0 bd
       -0.10858985 0.07054344 -0.08263543 -0.09395643
0000d0 9e 1d 69 3d 49 43 4a 3d 6b 82 ff bc a7 32 f6 3d
       0.05691301 0.049380574 -0.031190118 0.1202138
0000e0 b8 8d 61 bd 57 53 ab bd 87 d9 ec 3d 62 7e 85 bd
       -0.055066794 -0.08365505 0.115649275 -0.06518246
0000f0 c7 c7 02 3e b0 e7 c2 3d 4a 01 48 3c a0 73 9b bc
       0.12771522 0.09516847 0.012207339 -0.018976033
000100 82 89 d8 3d f8 9a 3b 3d 4e 42 0a 3e 0d 1d a2 bd
       0.105731025 0.045802087 0.13501856 -0.07915697
000110 59 80 0b be 1b 68 33 bd 35 a3 50 3d 30 03 01 bc
       -0.1362318 -0.043800455 0.050936896 -0.007874295
000120 ca 06 70 bc 2e 2a ec bd 16 f0 c8 3d 79 34 0c be
       -0.014650056 -0.11531483 0.09811418 -0.13691892
000130 0e 58 07 be 36 ea 91 bd 58 98 98 bd d8 af d0 3d
       -0.13217184 -0.0712475 -0.07450932 0.101897895
000140 6a 45 1b bc 76 86 c3 3d 7c 2b f7 3d ef b5 b3 ba
       -0.009476999 0.09547131 0.12068841 -0.0013710837
000150 05 e2 b8 3c fb 5b 69 bd 07 0e ce bc 42 63 57 3d
       0.022568712 -0.056972485 -0.025153173 0.052584894
000160 52 96 a0 3d 37 52 2c 3d 1d 69 39 bd 83 f5 85 bd
       0.07841171 0.042070594 -0.04526626 -0.06540968
000170 4c 79 94 bd 55 9d 83 3d 3d 71 0c bd 1a 68 2d bd
       -0.07249698 0.06426493 -0.03428768 -0.042335607
000180 89 f8 8e 3d 6e 5b dd bb 57 f4 04 3c df f9 08 3d
       0.06980998 -0.006755284 0.008114896 0.03344142
000190 77 bf 83 3d ef 59 37 bc 6e 25 cc 3b 71 07 eb ba
       0.064330034 -0.011190875 0.006230048 -0.0017931295
0001a0 06 5b 0e be df e3 43 3d e2 5d bc bd db 8d 0e be
       -0.1390191 0.047824737 -0.09197594 -0.13921301
0001b0 6f 72 f0 3b 24 ba 49 3d dc 86 a3 3d 39 35 ec bd
       0.0073378603 0.049249783 0.07984707 -0.11533589
0001c0 3c 71 65 bd 5b e8 18 bd e1 b7 fc 3d 4e fa 4f 3d
       -0.05601619 -0.037330966 0.123397596 0.05077582
0001d0 25 81 cb 3c 49 80 be 3d 31 7c 0f bd a2 c7 0e be
       0.024841854 0.09301812 -0.035030548 -0.13943341
0001e0 cb f1 db 3d bd 10 c7 bd b7 cc a0 bd 40 57 57 bd
       0.10739478 -0.097199894 -0.07851546 -0.052573442
0001f0 41 a2 03 be 84 fe ff bd 05 9e 12 3c 73 ec 81 bd
       -0.12854864 -0.12499717 0.008948808 -0.06343927
000200 aa 4f 1f bd 65 4f 5e bd ed 12 b9 3d 6a 6c b6 bd
       -0.038894333 -0.054274935 0.09036813 -0.08907397
000210 d0 03 2f bd 3c c5 67 bd bd b5 f6 3d cd 73 44 3d
       -0.042728245 -0.05658458 0.120463826 0.047962
000220 17 fd a4 3d 21 31 31 3d dd 74 44 bd 7a 5c 61 3d
       0.080560856 0.043259744 -0.047963012 0.055019833
000230 1f c4 b5 bd 69 44 4e 3b 1b 2c ef bd 6c 89 d3 3b
       -0.08875298 0.003147388 -0.11678334 0.006455591
000240 97 b9 07 be 8b b9 e7 bc 90 d6 f7 bd 23 35 65 3b
       -0.1325439 -0.028286716 -0.121014714 0.00349743
000250 88 e9 f7 3d ac e6 e9 bd e0 3d 0b 3d 3b b2 0f 3d
       0.121050894 -0.1142095 0.033994555 0.035082083
000260 c1 72 e4 3d 11 cc c3 3d d4 4c 95 3d 0d c3 e2 bd
       0.111547 0.09560407 0.072900444 -0.11072359
000270 cb 25 b8 3d e6 20 8a bd 94 b6 9c 3d 8f 54 80 bd
       0.089915834 -0.06744556 0.076520115 -0.06266128
000280 23 6e 48 bd eb a3 ef 3d a4 4a fc 3d 03 66 ca 3d
       -0.04893316 0.11701187 0.12318924 0.098827384
000290 d3 70 6f bd 8e 55 d3 bd 43 d3 9a 3d 96 55 48 3d
       -0.058457207 -0.10319053 0.07559826 0.048909746
0002a0 06 15 c4 bd d8 34 c8 3d 23 e5 42 3d 32 36 3a 3d
       -0.095743224 0.09775704 0.047581803 0.04546184
0002b0 5c 68 3f 3d 22 81 b6 bd 73 d7 82 bd 16 0d c2 bc
       0.046730384 -0.08911349 -0.0638875 -0.02368788
0002c0 7e 37 3c bc 2b 39 23 3d c2 68 f4 bd 9e 46 01 3d
       -0.01148784 0.03984944 -0.119340435 0.031561486
0002d0 61 cd 00 be 02 3c d7 bd 66 7c af 3d ad be a2 bd
       -0.12578346 -0.105094925 0.08568649 -0.07946525
0002e0 ac 32 71 bc a6 f5 7d bb c4 35 66 bd 3b 72 42 3d
       -0.014721554 -0.0038751154 -0.05620362 0.04747222
0002f0 1a 66 19 3d 1b d7 1b 3d 30 dd 37 bd df ee 49 bd
       0.037450887 0.038046937 -0.044888675 -0.04930007
000300 aa 9f 12 be 5a c1 bf bd 29 08 75 3d 99 ce ae bd
       -0.1431872 -0.09363051 0.059822235 -0.08535499
000310 38 c4 79 bd 9e 73 11 be 38 d8 fa 3c 39 7e f9 bd
       -0.060978144 -0.1420426 0.03062068 -0.12182278
000320 c1 09 eb bd 29 1b ae bb 8d bf 89 ba 1a 02 e1 bd
       -0.1147647 -0.0053132963 -0.0010509357 -0.10986729
000330 5e 2f 9a bc fb ef 6c bc 1d 59 ea 3d 22 a6 59 3d
       -0.018821415 -0.014461513 0.11442778 0.053136952
000340 ec 9a d9 bb a3 eb 08 3e 42 56 8a 3a 13 46 02 3e
       -0.0066407826 0.13371138 0.0010554271 0.12722044
000350 ef 8f f7 bd 0d b8 1c 3d 26 9e 0c 3e 99 6c ba 3d
       -0.12088 0.038261462 0.13732204 0.091027446
000360 e8 3e e3 bd 8b 72 87 3d c6 67 be 3d 24 2f ed 3d
       -0.11095983 0.06613644 0.09297137 0.11581257
000370 c4 ea 82 3d 1f b9 4e 3d 17 aa a3 bc 92 aa f5 3d
       0.06392434 0.050469514 -0.019978566 0.11995424
000380 6c 68 93 bd eb 5a 8a 3d 2b d5 bb 3d 35 4f 87 bd
       -0.07197651 0.067556225 0.09171518 -0.066069044
000390 04 01 cf 3d 97 97 02 be 1f c1 72 bd 57 b8 fe bd
       0.101076156 -0.1275314 -0.059266206 -0.12437504
0003a0 c1 a1 be bc ce ca ed bd 6b 6d f4 bd 10 13 6d 3d
       -0.02327049 -0.116109475 -0.11934932 0.057879508
0003b0 49 6b 8a bd 7a 64 64 3d 6b 81 af 3d d7 ce c0 3d
       -0.06758744 0.055759884 0.085696064 0.094144516
0003c0 64 85 c9 bc e8 a9 09 3d e0 91 85 bd b5 f7 ba bc
       -0.024599738 0.0336093 -0.06521964 -0.022823194
0003d0 cb 4f 49 3d 79 47 38 bd be b0 88 bd 75 b8 24 3c
       0.049148362 -0.044990037 -0.06674336 0.010053744
0003e0 9a 0e 02 3e 44 9c c0 3d e6 d4 c5 bd 42 95 4b bd
       0.12700883 0.09404805 -0.09659748 -0.04970289
0003f0 38 22 a1 bc 2e 0c 02 be 02 f6 1f bd d3 ae 89 3d
       -0.019669637 -0.12699959 -0.03905297 0.06722798

_3_3_conv.0.bias f4 [6]
000000 a0 3a 0a 3d e8 8c ba 3d 58 02 23 bd 06 12 0b be
       0.033747315 0.09108907 -0.039797157 -0.13581094
000010 6c f6 d0 3d 86 a2 87 bd
       0.10203251 -0.06622796

_3_3_conv.1.weight f4 [9, 18, 3, 3]
000000 d0 de 3d bd b8 7c e9 bc be 66 69 bd 75 a0 30 3d
       -0.04635507 -0.028501853 -0.05698275 0.043121774
000010 53 ee 87 bd 89 13 ee bc e5 b2 8d bc e5 e3 93 bd
       -0.066372536 -0.02906205 -0.017297218 -0.07221202
000020 cc 96 01 bc be 22 46 3d 2f 89 17 bb 3d 06 02 bd
       -0.007909488 0.048372976 -0.002312254 -0.03174423
000030 0a 2f 8b 3d 63 ec 70 3d ec f3 e8 bc 86 a3 a7 bc
       0.06796081 0.058819186 -0.028436624 -0.020463716
000040 5c df 84 bd 83 e7 8c 3c 5f ad 57 bd 7c 3d 91 bd
       -0.06487915 0.017200237 -0.052655574 -0.07091805
000050 c2 0d 20 3d fe 6f b3 bc a3 a1 0d 3d 90 71 1d 3d
       0.03907562 -0.021903988 0.034577977 0.03843838
000060 58 b8 b5 bb 12 fc a7 bb 8c c7 8c 3c f8 ef 78 bd
       -0.005545657 -0.0051264847 0.017184995 -0.060775727
000070 fa c1 54 3d 60 ed 76 bc 5d d3 7c 3d e3 55 aa 3c
       0.051942803 -0.015071243 0.06172501 0.020792907
000080 0a 74 90 3d a8 2f c2 3b 5a 4f 5e bc f2 2a 25 3d
       0.07053383 0.005926091 -0.013568724 0.04032416
000090 e6 35 26 3c 26 54 b0 3c 69 e9 20 bd f0 aa 29 bd
       0.010144686 0.0215245 -0.039285097 -0.041422784
0000a0 27 67 0a bc db b8 9a 3d 71 ec 92 3d ff df 05 3c
       -0.008447445 0.0755479 0.07174004 0.008171081
0000b0 e5 f2 5d 3d d7 c0 1a bd a2 92 0e bd c6 89 0b 3d
       0.05418672 -0.037781563 -0.03480781 0.034066938
0000c0 23 37 3c ba ad 65 5d 3d 16 95 f2 bc a5 78 86 3b
       -0.0007179847 0.054052044 -0.029612105 0.0041037374
0000d0 2a 88 e9 bc dc 22 2a bd b2 70 0a bd 50 fe 16 3d
       -0.02850731 -0.04153715 -0.03379888 0.036863625
0000e0 c0 84 b2 bc 2c 00 1d bd fd 9d 03 3d e0 62 2a bd
       -0.021791816 -0.038330242 0.03213309 -0.0415982
0000f0 4d 1e 60 3d 19 cb e7 3c 87 17 65 bd 6a f1 68 bd
       0.054716397 0.028295087 -0.05593064 -0.056870855
000100 c4 06 1c 3d 68 aa a0 bd 6e 18 46 3d c2 2d 8c 3d
       0.03809239 -0.078450024 0.04836314 0.06844665
000110 f8 a7 ea bc 64 4b 1d bd 27 8f 25 3b 9a 8a a9 bc
       -0.028644547 -0.038401976 0.0025262327 -0.020695973
000120 23 91 ed 3b c0 18 5b bd 8c 85 57 bc 96 84 9e bd
       0.0072499677 -0.0534904 -0.013154399 -0.077401325
000130 55 99 0f bd ed f4 48 bd ce b5 7d 3d 15 57 d4 3c
       -0.03505834 -0.049061704 0.06194096 0.02592043
000140 0d 68 27 3d 80 7f cb 3c 6f 1b d3 bc a4 dd 08 3d
       0.040870715 0.02484107 -0.025769917 0.033414498
000150 20 5c a1 3d 63 1f 0a 3d 22 b9 4b 3d 2a bf 82 3d
       0.078788996 0.03372134 0.049737103 0.06384118
000160 a7 1d df 3b f5 4f 11 3d 5a 92 1f 3d 01 a4 c0 3c
       0.0068089548 0.035476644 0.03895793 0.023515703
000170 05 ee 78 3d ae 64 29 3d 18 fa 1b 3d 5b d9 53 3b
       0.060773868 0.04135578 0.038080305 0.00323256
000180 f8 dc 3e bb 16 a6 4d bd 5a 24 27 bc 6e 9f 56 3d
       -0.0029123407 -0.05020722 -0.010201538 0.052398138
000190 6b 8c 1e 3d e6 5f 7b bd 4a d2 20 bc 63 99 96 bd
       0.03870813 -0.061370753 -0.009815762 -0.07353475
0001a0 ea b2 87 bb 6f f0 17 3b 1b 8e 9f 3d cc b2 01 3d
       -0.0041412013 0.002318408 0.07790776 0.031664655
0001b0 2a 20 70 bc 5b 19 8d bd b3 70 7c 3d e1 cc a2 bc
       -0.014656106 -0.06889602 0.061630916 -0.019873085
0001c0 43 04 3e 3a e0 db 03 3d fe 8b b2 3c 42 99 37 3c
       0.000724856 0.03219211 0.02179527 0.011205973
0001d0 99 f0 b6 bc 40 08 d5 bc 7d 31 6c 3d bd e7 53 bd
       -0.022331523 -0.02600491 0.057664383 -0.051734675
0001e0 88 e3 40 bd 30 4a c5 bc 95 c8 55 bd f7 c4 4f 3d
       -0.04709199 -0.024083227 -0.052193243 0.05072495
0001f0 62 3d c2 ba 46 17 64 bd a9 64 77 3c 1a df 8b 3d
       -0.0014819319 -0.055686258 0.015099683 0.068296626
000200 97 0d 11 bd 7d 3e 93 3c 13 61 61 bd 96 4a 66 3d
       -0.03541335 0.017974133 -0.055024218 0.056223474
000210 e8 c9 21 3d d3 c4 09 bd 2d f7 5d bd 2e ff 3f 3d
       0.039499193 -0.03363497 -0.054190803 0.046874218
000220 cc ad 0f bd bc 1b 0d 3d e2 03 22 3d 86 d1 96 3d
       -0.035077855 0.034450278 0.039554484 0.07364182
000230 3d 5b 30 3d fd 24 08 3d 0c 5e 91 3c 99 e6 de bc
       0.04305576 0.0332384 0.01774504 -0.027209567
000240 b6 49 7b 3d 32 0f 62 3d ff d8 95 bc 94 a5 e3 3c
       0.061349593 0.055190273 -0.018291948 0.027788915
000250 1a 58 98 3d 90 d9 b1 3c 84 80 11 bc 53 19 1f bc
       0.07438679 0.021710187 -0.008880738 -0.009710628
000260 1e cd fb bb 1c a3 fe bb d9 17 4a 3d a3 53 09 3d
       -0.007684364 -0.007770909 0.04933915 0.033527028
000270 e4 07 2d 3d 28 3a c6 3c 44 49 89 3c 3b 8b a2 ba
       0.042243853 0.024197653 0.016758569 -0.0012401113
000280 ce b9 34 bd 43 16 5f bd 8b d1 03 3d 64 f9 8f 3c
       -0.04412251 -0.05446459 0.032182258 0.017574973
000290 59 33 ce 3b a6 2e 4d 3b b7 c7 85 bc 5b 8b 82 bd
       0.006292742 0.0031308322 -0.016330583 -0.06374236
0002a0 0d 5b ee 3c ae f7 f1 bc e4 0f 8f 3d e6 a9 58 3b
       0.02909615 -0.029537048 0.06985453 0.0033060252
0002b0 02 7d 2b bd 03 c4 ad 3c 3c 7d 82 3a 9f d4 56 3d
       -0.041867264 0.02121163 0.0009955536 0.052448865
0002c0 ab 6a 92 bd 32 43 42 bd 07 b1 93 bd 86 bb 12 3b
       -0.071492516 -0.047427364 -0.072115 0.0022389605
0002d0 5a 37 63 bd ba 81 34 3d 5d 5d 42 3d bc 10 34 3d
       -0.05547271 0.04406903 0.04745232 0.04396127
0002e0 fe a0 05 bd ff 50 1b bb 88 01 06 bd 5b db 5f 3d
       -0.032624237 -0.00236994 -0.032716304 0.054652553
0002f0 d6 79 58 3d 4f bc 7f bd 2d 5e 56 3d c2 04 4a bd
       0.052850567 -0.062435444 0.052335907 -0.049320944
000300 15 96 4a bc 66 a6 93 bd cc e0 09 bd b7 ad 96 bd
       -0.012364884 -0.07209472 -0.03366165 -0.07357352
000310 b0 d3 1b bb 22 14 1e 3d 50 e2 39 bd d1 6b 94 3b
       -0.0023777299 0.03859342 -0.045381844 0.0045294543
000320 53 26 2b bd 7e e7 4b 3c 5e c7 9e 3c 86 e2 9e 3c
       -0.041784596 0.012445329 0.019382175 0.019395124
000330 d3 3a 95 bd bb 97 55 3d ba af 76 3d 32 44 a9 bc
       -0.072866105 0.052146655 0.06022618 -0.0206624
000340 2f 97 5d bd d8 11 3a bd 51 68 d8 3a df 72 8c bd
       -0.054099258 -0.045427173 0.0016510581 -0.068578474
000350 a7 79 19 bd 7a 01 42 3c 50 9f 7e 3c fb d1 9e bd
       -0.037469532 0.011841172 0.015540913 -0.07754894
000360 7b 32 8b 3d d3 d1 1f 3d c8 cb 13 bd ad e2 6d 3d
       0.06796738 0.039018463 -0.036083013 0.058077503
000370 4a 3f 3f bd 59 36 6b bd b9 c1 65 bd d3 a7 23 bd
       -0.046691217 -0.057424877 -0.05609295 -0.03995497
000380 7f 12 cf bb ce b3 9b 3d 95 a7 84 3d 97 42 0f 3d
       -0.0063193436 0.076026544 0.06477276 0.034975614
000390 69 b7 8f 3c 5a 38 e6 bb 1f 6a 66 bd 5d 39 fe 3c
       0.017543511 -0.0070257606 -0.05625355 0.031033212
0003a0 0b f0 07 3d 8d 1d e7 bb 76 78 d6 3c 48 85 09 bd
       0.033187907 -0.0070530833 0.026180487 -0.033574373
0003b0 2a 73 81 3a 71 b5 a7 39 7f 93 62 bd 42 44 18 bd
       0.000987624 0.00031987907 -0.055316444 -0.03717447
0003c0 d0 7b 93 3c 45 ad 97 3d e2 51 92 3b 1c fe 17 3d
       0.018003374 0.074060954 0.0044653276 0.037107572
0003d0 0f 9e 0b 3d 91 a5 b7 3c 56 d0 75 3d d6 6d 43 3d
       0.034086283 0.022417815 0.060013138 0.04771217
0003e0 17 6c 13 3d 7e 5c 0d bd d2 00 58 bb 33 10 20 bd
       0.035991754 -0.034512036 -0.0032959473 -0.03907795
0003f0 6c f3 0c bc 2c a5 3f 3d 38 73 3f 3d 45 30 9b 3c
       -0.008602958 0.04678838 0.04674074 0.018943915

_3_3_conv.1.bias f4 [9]
000000 8e b2 2f bd 80 8e 02 3c b0 d7 06 bc 9e bb 5f 3d
       -0.042894892 0.007968545 -0.008230135 0.054622285
000010 20 53 45 bc cf d9 93 3d 1e 62 cb bc 20 ab b5 3b
       -0.012043744 0.07219278 -0.02482706 0.0055440813
000020 6c cf fd 3c
       0.030982696

_3_3_conv.2.weight f4 [18, 36, 3, 3]
000000 f6 3c ed 3c 6c 4b 13 3d 11 3c 3c bc e1 39 39 bb
       0.028959733 0.0359606 -0.01148893 -0.0028263258
000010 9b 8b 64 bd 8b 31 30 bc 81 9c 32 3d 13 c1 51 bd
       -0.0557972 -0.010753999 0.043606285 -0.05120952
000020 52 8c 4e 3d ba a9 f2 bc ae e0 ac 3c f2 ba cf bc
       0.05042679 -0.029621948 0.02110323 -0.025357697
000030 a9 6f a0 bc b3 ec fb 3c 7d bb 0a bd 74 0d 77 3c
       -0.019584494 0.030752515 -0.03387021 0.015078891
000040 ad 78 f9 3c 75 7d 10 bb 9a 39 09 3c c4 36 18 3c
       0.03045305 -0.0022047434 0.00837555 0.009290401
000050 2a 49 6b 3c a8 0c be 3a ae ae 03 bd 89 48 b8 3c
       0.014360705 0.0014499621 -0.03214901 0.022495525
000060 b2 f6 9e bc 46 e9 d8 39 29 40 ff bc 56 ad 5b 3b
       -0.019404743 0.00041372533 -0.031158524 0.0033520064
000070 9f 45 ed bc 1e c7 43 3c d2 6e 63 bd a8 41 32 3b
       -0.028963862 0.011949329 -0.05552561 0.0027199779
000080 5e 6c 6c bd 20 05 5e bc 0e ec 1d 3d 01 bb 65 bd
       -0.057720535 -0.013551027 0.038555197 -0.056086544
000090 70 a9 f0 3c cd 32 48 3d 31 ef 65 bc 9e 5a d5 3c
       0.02937767 0.048876572 -0.014034078 0.026044186
0000a0 eb e5 c0 3c df 2e 10 3c 2e ee 01 bd e1 ad 59 3d
       0.023547133 0.008800237 -0.031721286 0.05314434
0000b0 e4 64 2c bd 2d e1 1a bd ee f0 6b bc 99 42 2b bd
       -0.042088404 -0.0378124 -0.014400704 -0.04181156
0000c0 15 c7 b0 bc 6d 10 12 bd bc 27 f2 bc 0c 1e b2 bc
       -0.021579305 -0.035660196 -0.029559962 -0.021742843
0000d0 28 50 9e bc f8 0a 89 3c db 54 51 3d 0c 23 36 3d
       -0.01932533 0.016728863 0.051106315 0.044467017
0000e0 7f 2a 6b bc 14 fd 3f bd d4 3b 8d bc 9b 5f 7c 3b
       -0.014353394 -0.046872213 -0.017240442 0.0038509134
0000f0 0c 2f 59 bd c8 45 b5 bb 67 df 13 3d 20 19 7a bd
       -0.053023383 -0.005532 0.036101725 -0.061059117
000100 54 7e 94 3c fd e3 c6 3b 0c 03 80 bc 14 ed d7 bc
       0.018126644 0.006069659 -0.015626453 -0.026358165
000110 f2 74 4f 3c b8 6c 55 bd 77 c2 27 3c 21 b3 d7 3c
       0.012662159 -0.052105635 0.010239235 0.026330533
000120 31 b0 2c 3d 47 5e 16 bd 1e ab 5d bd 51 64 ce 3c
       0.042160217 -0.036711004 -0.05411827 0.025194319
000130 ad 63 6e bc 5a 89 69 bd 51 1b 1e bc 7a 8c 2d bd
       -0.014550132 -0.057015754 -0.009650067 -0.042370297
000140 e7 88 15 bd 50 0e af bb e3 f0 dc 3c f2 1d d3 bc
       -0.036507513 -0.0053422824 0.026970332 -0.025771115
000150 a4 85 18 3d 27 8b bd bc 68 2e c2 3c 0d 76 10 bd
       0.037236825 -0.023137642 0.023703769 -0.035268832
000160 8f fd 0c bd 5a 1a ba bb 1d b6 35 bd bd a8 55 bd
       -0.0344215 -0.005679411 -0.04436313 -0.052162874
000170 4c 6f 67 bb d9 76 82 3c ff 2e ec bc bb 4f 3d 3c
       -0.003531414 0.015925812 -0.028831003 0.011554654
000180 e9 6d 5b bd 70 00 1b bd eb 7c 2e 3c 16 75 9f 3c
       -0.053571615 -0.037842214 0.0106499 0.01946501
000190 f0 ce 37 bd e0 63 d6 ba 19 8e f1 3c 9f 21 0c bd
       -0.044875085 -0.0016356669 0.029486703 -0.03421175
0001a0 04 01 42 3c 8e e6 8b bc 73 36 2f 3d 85 9c 0f 3d
       0.011841062 -0.01707771 0.042776536 0.035061378
0001b0 07 4d 2c 3d 16 b0 f0 bc c7 c6 26 bd 08 f7 44 3d
       0.042065646 -0.02938084 -0.040716913 0.04808715
0001c0 34 c2 30 3d 24 e3 6e bd a0 52 5f 3c aa e0 c5 bc
       0.043153957 -0.058322087 0.013630539 -0.02415498
0001d0 3d dc ca bb c0 fe dd 3b e2 1d 8a 3c 44 8e 28 bb
       -0.006190805 0.0067747533 0.016859952 -0.0025719563
0001e0 ad ff ce 3c 00 3d 0e 3c e6 7f 15 bb 8b a2 2e bd
       0.0252684 0.008681536 -0.002281183 -0.04263548
0001f0 e4 1f 0f bd 36 66 f9 3c 49 51 53 3b bd 9b 2f 3d
       -0.034942523 0.030444246 0.0032244495 0.042873133
000200 17 24 cb bb 3e 8d 39 bc ef af 2e bd d6 64 27 3d
       -0.0061993706 -0.011325179 -0.042648252 0.04086765
000210 15 06 9d 3c fa 0b 14 3d 7a f1 d6 3c e0 19 18 bd
       0.01916794 0.036144234 0.026238192 -0.03713405
000220 f9 72 1f 3d c2 d5 0d 3b 33 cc 6f bd bb de 0f 3d
       0.038928006 0.0021642302 -0.05854435 0.03512452
000230 34 5e 89 3c 71 af 6b bb 6b 2c b9 3b ec fd 1d 3d
       0.016768552 -0.0035962726 0.005651047 0.038572237
000240 07 a5 b8 3c 7d f6 8f bc f4 8a ec 3c 87 b5 97 3c
       0.022539629 -0.01757359 0.028874852 0.018519176
000250 34 a0 6d ba 89 82 01 bd 84 df 78 bd 22 8b 49 bc
       -0.00090647046 -0.03161863 -0.060760036 -0.012301238
000260 1b d2 93 3c 23 63 90 bc 3f d3 f4 3c 4d 60 45 3d
       0.018044522 -0.017625397 0.029885886 0.048187543
000270 79 66 51 bc ba d2 df bc 8d bf 19 bd c8 92 26 bd
       -0.012780779 -0.027322162 -0.037536193 -0.040667325
000280 83 c6 cd bc bf f1 09 bd 4e fe bc 3c e5 f3 42 3d
       -0.025119072 -0.033677813 0.02307048 0.047595877
000290 a3 bb 50 3d d0 c9 cb 3c 6b b8 18 bd df 12 e0 3b
       0.050960194 0.024876505 -0.03728525 0.006838187
0002a0 58 0b 09 bd fe c7 af bc 7a a5 b0 3c 49 1e 58 bd
       -0.033458084 -0.021457668 0.02156328 -0.052763257
0002b0 c7 0b 3e bd 90 ce 40 bd 9e 96 11 bd bc 45 39 3d
       -0.04639795 -0.047071993 -0.03554403 0.04523252
0002c0 49 12 66 3d 66 1e 4a bd d7 be 94 3c b4 a9 91 bc
       0.05616978 -0.049345396 0.018157406 -0.017781116
0002d0 2b e8 25 bd 3e fb 09 3d 55 90 9f bc b7 88 a8 3c
       -0.040504616 0.03368687 -0.019478003 0.020573003
0002e0 5b 9f 28 3d 64 78 59 bd e4 13 43 bd 49 c1 08 bd
       0.0411676 -0.05309333 -0.04762639 -0.033387456
0002f0 68 ff 43 bd eb 35 03 3c b2 0c 54 bd e7 63 49 3d
       -0.047850996 0.0080084605 -0.05176992 0.04916754
000300 34 6a 7d 3c 61 50 53 3c 9e 8f 09 bd 8b 31 5e 3d
       0.015467215 0.012897582 -0.03358423 0.054246467
000310 71 ed db bc 3f 4b 24 3b 74 f0 6d bc 23 9f 52 3d
       -0.02684662 0.0025069264 -0.0145226605 0.051421296
000320 95 a4 3e bb 01 3a 41 3d 22 f8 13 bc 61 54 4e 3d
       -0.0029089798 0.047174457 -0.009031327 0.05037344
000330 1a 99 34 bd e0 9f 13 3d 7d 80 27 bd 30 bb 3b bd
       -0.04409132 0.03604114 -0.04089402 -0.045832813
000340 4f 41 dd bc 62 95 00 bc 42 18 fb 3c 97 06 40 bc
       -0.02700868 -0.007848116 0.030651215 -0.011720321
000350 74 18 35 3c 03 3f 0e 3d 7b 5c 54 bd 06 60 d6 bc
       0.011053193 0.03472806 -0.05184601 -0.026168834
000360 54 1b 08 3d da b2 4d 3d 0d 5b 56 bd 40 77 92 3c
       0.033229187 0.050219394 -0.052332927 0.017879128
000370 c3 4c 01 3d 56 c4 d8 bc 28 14 9e 3c 57 69 eb bc
       0.031567346 -0.026460808 0.01929672 -0.028736753
000380 7c 24 24 bd a6 95 31 bc 9e ac 0d 3d 25 2a 87 ba
       -0.040073857 -0.010838902 0.03458845 -0.0010312243
000390 92 79 43 3d c2 4a 86 bc ca 1e 6e bd e1 e4 36 bc
       0.04772336 -0.01639307 -0.05813483 -0.011162967
0003a0 5e a0 8b 3c 33 79 cd 3c 27 6b 52 bc 3c ee 49 3d
       0.017044242 0.025082206 -0.01284293 0.049299464
0003b0 ca cb 84 ba d9 ad 93 b6 ae d7 90 3c d3 d4 7b bc
       -0.0010131535 -4.40118e-06 0.01768097 -0.0153705655
0003c0 7b 17 0f bd 34 27 de bc e8 a2 2c bc 4c 63 1f 3c
       -0.034934502 -0.027118303 -0.010536887 0.009728264
0003d0 d4 4c 44 3d 13 8c c8 3c e3 8d b5 3c f2 1c 48 bd
       0.04792483 0.024480855 0.022162383 -0.04885573
0003e0 88 00 9d bc b1 4e 46 bd b8 65 9b 3c f8 e0 32 bd
       -0.019165292 -0.04841489 0.018969402 -0.04367158
0003f0 cb f1 4d 3d be 1a fb bc e9 9b 1c 3d 01 ca 4d 3c
       0.05027942 -0.0306524 0.038234625 0.0125603685
