results/net_params_third_2.pkl (torch, 296670 bytes, 135 tensors)

_1_1_conv.0.weight f4 [6, 6, 1, 1]
-0.110524945 0.0646889 -0.21659212 -0.22778822 0.2911662 0.2250708 0.0789112 0.012193572
-0.25180128 0.025375726 0.28194362 -0.16926682 0.09362057 0.3800991 -0.35339192 0.31022447
-0.11590215 0.0032615021 -0.2852021 0.14318094 0.045692578 0.20745672 0.10167919 0.3010958
-0.19429326 -0.3650186 -0.22152403 -0.22105779 -0.31181073 -0.20028935 -0.3270893 0.1628102
-0.051017385 0.24870396 -0.1804795 -0.13853322
00000000: e75a e2bd 9d7b 843d 53ca 5dbe 5141 69be
00000010: bc13 953e f678 663e 329c a13d 8cc7 473c
00000020: 19ec 80be c1e0 cf3c ea5a 903e 4854 2dbe
00000030: 24bc bf3d 599c c23e c9ef b4be bed5 9e3e
00000040: 1b5e edbd edbe 553b 0206 92be 069e 123e
00000050: 2428 3b3d 896f 543e 2e3d d03d 3b29 9a3e
00000060: d0f4 46be b8e3 babe 32d7 62be f95c 62be
00000070: a8a5 9fbe a718 4dbe 4078 a7be b8b7 263e
00000080: 9bf7 50bd 40ac 7e3e 9ecf 38be a7db 0dbe

_1_1_conv.0.bias f4 [6]
0.0061547146 0.05857417 -0.20018198 0.235582 -0.145681 0.40191895
00000000: 7dad c93b 78eb 6f3d 81fc 4cbe 683c 713e
00000010: 662d 15be 52c8 cd3e

_1_1_conv.1.weight f4 [9, 18, 1, 1]
-0.23169854 -0.18912978 0.1862628 0.15550911 0.0016753747 -0.1054322 0.053593203 -0.044651806
-0.18623154 0.16230465 0.04379809 0.1788939 0.1482182 -0.098974705 0.22011213 0.13957104
0.10208544 0.17054106 -0.07323684 0.11395541 0.20844331 -0.16825297 0.07575199 -0.12521303
0.18592492 -0.1333018 0.042380486 0.17054664 0.04029433 -0.04727525 -0.19958887 0.2125468
0.010444626 0.061896607 -0.17630778 -0.19784524 0.19544303 0.07227172 0.18769237 -0.079999335
0.0013366834 -0.13386673 -0.106172085 -0.15551047 -0.0106661115 -0.16710411 0.18439978 0.07123636
0.17181991 -0.066511706 -0.036271095 0.11069238 0.17435923 0.13861045 0.041344948 0.20984684
0.10379543 -0.08640057 0.1891162 -0.017265474 0.053328536 -0.20192887 0.078278266 0.10477922
-0.19524564 0.22340909 0.18081993 0.13259335 0.21302345 0.013536014 -0.1159414 0.029067438
-0.2282541 -0.20100427 0.11631025 0.12760386 -0.10301219 0.22339348 -0.1310235 -0.052679628
0.08939425 -0.18032508 -0.110388726 -0.123968996 0.17120995 -0.23159938 0.21279635 -0.1844575
0.055000607 0.21070614 0.13640168 -0.2195346 -0.14053822 0.048669267 -0.21030095 -0.14437845
0.13002558 0.21225527 0.049186453 0.1192455 -0.002687829 0.16136794 0.0907063 0.03774772
-0.21676375 0.16869988 0.21643044 0.14426982 -0.15095912 0.19018033 0.08362456 0.14287832
0.15954085 -0.16964321 -0.21804631 0.19857526 0.14603984 0.12048233 -0.1943021 0.121306576
-0.21553718 -0.08012025 -0.10741779 0.20362312 0.11285492 -0.073847696 -0.16055253 0.03950903
-0.13660358 -0.13755038 -0.2052206 -0.007159164 0.11554526 -0.13085286 0.070664294 -0.103225045
0.040782597 -0.07214734 0.12791713 0.022603659 0.03959319 0.05486874 -0.125116 0.22310457
0.07893059 -0.07544265 0.22703938 -0.17301479 0.14212596 0.08726538 -0.0636604 -0.11761794
0.03520613 0.15784542 0.012194326 -0.08722271 0.08751541 -0.035972327 0.08171896 0.025095321
-0.15411521 0.016985862
00000000: 6242 6dbe 3dab 41be adbb 3e3e c83d 1f3e
00000010: 3f98 db3a d6ec d7bd 8c84 5b3d d0e4 36bd
00000020: 7bb3 3ebe 3133 263e a065 333d f62f 373e
00000030: 83c6 173e 40b3 cabd 1365 613e b6eb 0e3e
00000040: 2c12 d13d 51a2 2e3e 32fd 95bd 7461 e93d
00000050: 2a72 553e 824a 2cbe dc23 9b3d d837 00be
00000060: 1a63 3e3e 4480 08be 2997 2d3d c7a3 2e3e
00000070: ab0b 253d b1a3 41bd 0661 4cbe dea5 593e
00000080: f01f 2b3c 4c87 7d3d 078a 34be f197 4abe
00000090: 3822 483e 3203 943d 6e32 403e b1d6 a3bd
000000a0: a733 af3a 5c14 09be c070 d9bd 233e 1fbe
000000b0: eac0 2ebc 571d 2bbe 4cd3 3c3e 5ee4 913d
000000c0: 8ff1 2f3e 4a37 88bd 0091 14bd b0b2 e23d
000000d0: 3a8b 323e e6ef 0d3e 5259 293d 17e2 563e
000000e0: b392 d43d c8f2 b0bd ada7 413e 5370 8dbc
000000f0: 066f 5a3d 71c6 4ebe 5b50 a03d 7d96 d63d
00000100: 79ee 47be 5ac5 643e dc28 393e 8dc6 073e
00000110: d222 5a3e 28c6 5d3c af72 edbd d61e ee3c
00000120: 71bb 69be 10d4 4dbe 1134 ee3d 96aa 023e
00000130: 0ef8 d2bd 43c1 643e 062b 06be 98c6 57bd
00000140: 5514 b73d 23a7 38be 7c13 e2bd 75e3 fdbd
00000150: a951 2f3e 6328 6dbe 49e7 593e 6de2 3cbe
00000160: 5148 613d 5ac3 573e e2ac 0b3e aecd 60be
00000170: 40e9 0fbe 6d59 473d 2259 57be f2d7 13be
00000180: 6d25 053e 7259 593e bc77 493d fc36 f43d
00000190: 4a26 30bb a33d 253e 3ac4 b93d 5a9d 1a3d
000001a0: 51f7 5dbe a9bf 2c3e f19f 5d3e 78bb 133e
000001b0: 0795 1abe a2be 423e 5a43 ab3d b24e 123e
000001c0: ad5e 233e f3b6 2dbe 8847 5fbe 5057 4b3e
000001d0: 788b 153e 71bf f63d 21f7 46be 956f f83d
000001e0: c7b5 5cbe 1616 a4bd dcfd dbbd 9482 503e
000001f0: 7b20 e73d 763d 97bd e267 24be 38d4 213d
00000200: cfe1 0bbe 02da 0cbe 5925 52be 6c97 eabb
00000210: fea2 ec3d 4bfe 05be 71b8 903d a767 d3bd
00000220: a70b 273d fcc1 93bd b5fc 023e 4f2b b93c
00000230: 782c 223d 0bbe 603d 691e 00be 8675 643e
00000240: 5ca6 a13d ad81 9abd 037d 683e ca2a 31be
00000250: 7889 113e 31b8 b23d 6260 82bd ade1 f0bd
00000260: 4e34 103d 3ba2 213e b6ca 473c d2a1 b2bd
00000270: 473b b33d b857 13bd 455c a73d b494 cd3c
00000280: 61d0 1dbe ef25 8b3c

_1_1_conv.1.bias f4 [9]
0.07934736 0.17482965 -0.14518929 0.12568517 -0.10309863 0.03420694 0.051244035 0.15033041
0.024369404
00000000: de80 a23d 8b06 333e 80ac 14be 9db3 003e
00000010: 6025 d3bd 941c 0c3d 44e5 513d 37f0 193e
00000020: 58a2 c73c

_1_1_conv.2.weight f4 [18, 36, 1, 1]
0.09596718 -0.027903453 -0.15383993 0.029877793 -0.12977758 0.1588775 -0.09569875 -0.07180757
0.00769028 0.105293944 -0.016314324 -0.14737436 0.01222469 0.14372465 0.13824618 0.10618804
0.117495365 -0.11335767 0.08161394 0.15370283 -0.14292715 0.14697804 -0.01490696 -0.018235724
0.06934388 -0.063186154 0.0010749417 0.020871684 0.016609708 -0.05846816 -0.07051805 0.05627587
-0.05114287 -0.076947294 0.03804411 0.02081696 -0.09963189 0.014004114 0.08439814 0.023996457
0.11213627 0.1411596 -0.13690522 -0.1024752 -0.12812388 0.0476318 0.08320768 0.04880472
-0.13791658 -0.025801674 -0.06747861 0.061627556 0.116603136 0.15666623 -0.046138205 -0.12490215
0.08165825 0.111570984 0.032535523 0.08030811 -0.10667089 -0.14156832 0.066263705 -0.018173385
0.023533875 -0.041918438 -0.035232864 0.054882295 -0.011147908 -0.07558873 0.09464503 0.12005948
0.1548584 0.05968873 0.010478162 -0.08038923 -0.13121575 0.14219965 -0.0054949424 0.15889719
-0.08315125 -0.091846466 0.028036295 -0.07837532 0.14947195 -0.08870193 -0.12679753 -0.01228819
-0.16602254 -0.087205485 0.14161147 -0.029045751 0.1723028 -0.008812491 0.1171627 0.051409297
0.17488001 0.07726955 0.11964357 0.09804246 0.1252797 -0.14342266 0.09578482 -0.109071344
-0.093114845 0.010331814 -0.037994873 -0.16388232 0.05986308 -0.046345387 -0.041502476 -0.003961324
0.025739431 0.039816495 -0.06973879 0.15071836 -0.042347066 0.009183252 -0.014451789 -0.01909817
-0.15758623 -0.15917666 0.078247994 -0.08324537 0.017616026 -0.02825263 -0.14016679 0.016805198
0.10863274 -0.15611859 0.05872526 0.0951039 -0.05381677 0.067765035 -0.12917987 0.0066156383
-0.13763984 0.092536144 0.104893975 -0.0405947 -0.0068884147 -0.045058187 0.12081182 -0.09282195
0.12749976 -0.024427192 -0.12038882 0.16185637 0.12151977 0.072226256 -0.1597724 0.09075698
-0.123846754 -0.16284215 0.002796451 -0.031504557 0.050588597 -0.09946588 -0.1048616 0.082849935
-0.12068661 0.037481364 -0.10620554 -0.10021166 0.12309773 -0.029429475 -0.042969666 -0.09643811
0.0474485 -0.01954276 0.0132658295 0.1383864 0.053958938 -0.07265574 0.14987244 -0.16545437
0.035289187 -0.030528193 -0.16649383 0.09829475 -0.017172655 -0.011655609 -0.14497323 -0.07003194
-0.055357303 0.0346893 -0.010857601 -0.12914813 0.050295915 0.109811835 0.12883489 -0.0017532619
-0.13047028 0.14967483 0.055667084 -0.02149516 -0.010734152 -0.011191517 -0.022228187 0.02050822
-0.043960884 -0.07274496 0.03758426 0.10100785 0.10670115 0.13031867 0.025994113 -0.07110869
-0.16109146 -0.09470177 -0.11975822 0.16417232 -0.04257558 -0.08665908 0.15211396 -0.11423896
-0.0933078 0.048709195 -0.03738382 -0.032542054 -0.038042337 0.11197065 0.14396481 0.0020168985
-0.15144806 0.028477995 -0.1041418 -0.14708175 -0.03727079 -0.11774133 -0.14918125 -0.090045564
0.12485436 0.109152794 0.14487244 0.12040597 -0.11573764 -0.079074375 -0.033410456 0.13785505
-0.13366865 0.14460893 0.08999177 -0.016311824 -0.090045415 -0.094951734 0.15156427 0.054564986
-0.16357166 0.1193721 -0.05474227 0.022159196 -0.053434808 0.0050732666 0.15413707 -0.12897034
00000000: 718a c43d c895 e4bc 3788 1dbe 46c2 f43c
00000010: 6ae4 04be c9b0 223e b5fd c3bd d90f 93bd
00000020: bffe fb3b 5aa4 d73d 9ea5 85bc 4ee9 16be
00000030: 114a 483c 8e2c 133e 6890 0d3e 1d79 d93d
00000040: 69a1 f03d 1128 e8bd 3625 a73d 4664 1d3e
00000050: 7f5b 12be 6981 163e 523c 74bc 1663 95bc
00000060: 2a04 8e3d be67 81bd 0fe5 8c3a 18fb aa3c
00000070: 1511 883c 4f7c 6fbd c46b 90bd 8781 663d
00000080: 307b 51bd 8b96 9dbd 24d4 1b3d 5488 aa3c
00000090: ce0b ccbd 8371 653c efd8 ac3d 3894 c43c
000000a0: b3a7 e53d 248c 103e e230 0cbe 85de d1bd
000000b0: e832 03be 9019 433d ca68 aa3d 75e7 473d
000000c0: 013a 0dbe 085e d3bc 3a32 8abd 2d6d 7c3d
000000d0: a0cd ee3d 1d6d 203e 6afb 3cbd b3cc ffbd
000000e0: 713c a73d 547f e43d f843 053d 9478 a43d
000000f0: 4476 dabd 49f7 10be 44b5 873d 5ae0 94bc
00000100: 1dca c03c abb2 2bbd 5650 10bd 42cc 603d
00000110: b7a5 36bc 44ce 9abd 41d5 c13d bfe1 f53d
00000120: 3393 1e3e 2b7c 743d 99ac 2b3c 1ca3 a4bd
00000130: 6c5d 06be c99c 113e eb0e b4bb f2b5 223e
00000140: 344b aabd 001a bcbd 5fac e53c 3d83 a0bd
00000150: 2d0f 193e 5ca9 b5bd 36d7 01be 6854 49bc
00000160: d001 2abe ca98 b2bd 9902 113e 5bf1 edbc
00000170: 2570 303e 4462 10bc fff2 ef3d 8e92 523d
00000180: bf13 333e 7f3f 9e3d b007 f53d 7cca c83d
00000190: 5249 003e 64dd 12be d52a c43d cc60 dfbd
000001a0: ffb2 bebd c546 293c 83a0 1bbd c4d0 27be
000001b0: fd32 753d a9d4 3dbd 80fe 29bd ffcd 81bb
000001c0: 80db d23c 9f16 233d 36d3 8ebd ea55 1a3e
000001d0: 1e74 2dbd 5a75 163c 32c7 6cbc c473 9cbc
000001e0: 495e 21be 35ff 22be 7c40 a03d 8c7c aabd
000001f0: 7c4f 903c 0f72 e7bc e287 0fbe 0eab 893c
00000200: d87a de3d 8ddd 1fbe e689 703d d5c5 c23d
00000210: f96e 5cbd 65c8 8a3d ba47 04be ffc7 d83b
00000220: 75f1 0cbe 9783 bd3d a7d2 d63d a146 26bd
00000230: 36b8 e1bb ef8e 38bd 306c f73d 6f19 bebd
00000240: 4c8f 023e 891b c8bc 6a8e f6bd adbd 253e
00000250: 5bdf f83d 5ceb 933d 609b 23be ccde b93d
00000260: 5ea3 fdbd 18c0 26be aa44 373b ec0a 01bd
00000270: fd35 4f3d c4b4 cbbd aec1 d6bd 3aad a93d
00000280: 8b2a f7bd 0f86 193d 4a82 d9bd c53b cdbd
00000290: aa1a fc3d 1516 f1bc f600 30bd 5881 c5bd
000002a0: 5c59 423d 2318 a0bc ec58 593c 2ab5 0d3e
000002b0: 0c04 5d3d 88cc 94bd 2978 193e df6c 29be
000002c0: 658b 103d 4316 fabc 5c7d 2abe c24e c93d
000002d0: abad 8cbc 2bf7 3ebc dd73 14be e86c 8fbd
000002e0: 57be 62bd 5e16 0e3d 14e4 31bc 683f 04be
000002f0: 1703 4e3d 07e5 e03d 4bed 033e b5cd e5ba
00000300: 009a 05be 5c44 193e 2b03 643d 9e16 b0bc
00000310: 4cde 2fbc a05c 37bc e317 b6bc db00 a83c
00000320: 5410 34bd 4ffb 94bd f4f1 193d 34dd ce3d
00000330: 2286 da3d 4272 053e 9bf1 d43c 6fa1 91bd
00000340: 29f5 24be 00f3 c1bd cc43 f5bd ca1c 283e
00000350: bb63 2ebd 517a b1bd c3c3 1b3e 1ef6 e9bd
00000360: 2918 bfbd 4b83 473d c71f 19bd d14a 05bd
00000370: 48d2 1bbd de50 e53d 836b 133e f12d 043b
00000380: 3315 1bbe af4a e93c 4c48 d5bd 999c 16be
00000390: 42a9 18bd 5e22 f1bd f8c2 18be cf69 b8bd
000003a0: a5b3 ff3d 808b df3d 7159 143e 6897 f63d
000003b0: db07 edbd bff1 a1bd 67d9 08bd e029 0d3e
000003c0: 6fe0 08be 5d14 143e 9b4d b83d 60a0 85bc
000003d0: bb69 b8bd 0e76 c2bd aa33 1b3e 897f 5f3d
000003e0: 547f 27be 5c79 f43d 6e39 60bd 3487 b53c
000003f0: 75de 5abd a53d a63b 1cd6 1d3e cd10 04be

_1_1_conv.2.bias f4 [18]
0.1202078 0.12150578 0.049991205 0.11876984 0.11594303 -0.0031027074 -0.008127853 -0.16223553
0.029715016 0.005148411 -0.017642245 0.06355964 -0.108155966 -0.03184475 0.10171826 0.15578364
-0.11114924 0.09680565
00000000: 822f f63d 06d8 f83d 94c3 4c3d 9a3d f33d
00000010: 8a73 ed3d cb56 4bbb b02a 05bc 1221 26be
00000020: e86c f33c 00b4 a83b 7886 90bc 8e2b 823d
00000030: e080 ddbd a46f 02bd aa51 d03d bf85 1f3e
00000040: 36a2 e3bd 0a42 c63d

_1_1_conv.3.weight f4 [18, 18, 1, 1]
0.19424486 0.16333942 -0.09459002 0.10818995 -0.05450511 0.14589213 -0.20461632 -0.20020184
0.12698679 -0.17193286 -0.20462961 0.22344816 0.080986656 -0.048550237 0.1226766 -0.121789485
0.11732131 0.22401774 -0.15792221 -0.13143931 0.1457033 -0.09288935 -0.16292736 0.1649484
0.2040364 -0.1710731 -0.061909985 0.13915834 -0.16102481 0.14517772 -0.111192174 -0.11160436
-0.207807 0.043210257 -0.07958261 0.024904074 0.03740553 -0.07223492 0.016955618 -0.19346768
-0.1795615 -0.11648414 0.19842187 0.11713246 0.20530397 0.17021833 -0.11198234 -0.11706071
0.041035138 -0.054127835 0.008874296 -0.21869679 -0.16659696 -0.20574267 0.08294481 -0.07667881
-0.17095949 0.016703257 -0.12262252 -0.13148503 -0.21090913 0.01790094 -0.13167551 -0.18080626
0.17709516 -0.19374774 -0.07252836 0.103472 0.06789958 0.21998473 -0.06860867 0.023558004
-0.091978185 -0.21982796 -0.20570084 -0.07039349 -0.22856945 -0.1975446 -0.12665455 0.13133274
0.077325925 -0.12263999 -0.11516806 0.17252314 -0.14337975 0.17612828 -0.09948424 0.07594883
-0.063684955 -0.20688732 0.092288084 0.00548092 -0.10109837 0.05454153 0.22302061 -0.16835755
0.0889258 0.10023971 -0.07536552 0.1286631 0.12803696 0.070719056 0.2003017 -0.16341761
0.06277608 0.10245318 0.0741397 -0.074926496 0.094550155 -0.14191267 0.02813795 -0.07005849
0.19788094 -0.017434902 -0.20287389 -0.14644814 0.01860656 0.027173214 0.037397925 0.06738603
0.007035448 0.20775576 0.16269653 -0.070449315 -0.23465851 0.17724419 0.22967853 -0.15208715
0.12489438 -0.15443963 -0.032736905 0.1943156 -0.18884581 -0.087339476 0.18721011 -0.13785812
-0.17166713 0.20309423 -0.0881804 -0.04474368 -0.046597563 -0.09453682 0.054008923 0.12058589
0.17938402 0.082156286 -0.11233257 0.1994839 0.22119273 0.16817218 0.0392653 -0.10685058
-0.18164246 0.09266012 -0.016350752 0.16292717 -0.09653051 -0.19218868 -0.09132712 0.15726084
0.14659125 -0.19089627 -0.11329404 0.0039828336 0.06539139 0.20765176 0.09706077 0.02788405
0.086788714 -0.08329471 0.0039358293 -0.1762494 -0.1288541 -0.013225306 -0.1864478 -0.19366856
-0.031391192 -0.11737618 -0.07420711 0.005094812 0.114507906 -0.02741041 0.20480643 0.019370193
0.23338921 0.17808488 0.0008374938 -0.047516257 0.13187934 -0.11210867 0.16779211 -0.16551477
0.1792196 -0.19602403 0.091880456 -0.17720455 -0.20841269 0.005145305 -0.204194 -0.12788117
-0.051190995 0.052314505 0.062156215 -0.18902734 0.09539054 0.17690715 -0.17493795 0.00028211912
-0.11027409 0.12826012 0.13548775 0.08403604 0.14519739 0.15131433 -0.042169124 -0.050706655
0.19460675 0.08804048 0.18064335 0.23112838 -0.09020692 -0.1740307 -0.06519855 -0.026101882
0.097405046 -0.008703693 0.034710128 -0.0034095107 0.076842345 0.05796237 -0.19184692 -0.0312728
-0.05381134 -0.0016372835 -0.16492823 -0.23178451 0.118218064 0.20910577 -0.1993465 -0.009229556
0.056533165 0.1348349 -0.2232483 -0.16918977 0.1597864 -0.085609324 -0.1781243 0.15975533
-0.049884968 -0.22619165 0.07894762 -0.045636993 -0.087581985 0.19961222 0.042826403 -0.02029251
00000000: 20e8 463e 7342 273e 6ab8 c1bd b192 dd3d
00000010: c040 5fbd bf64 153e f186 51be b601 4dbe
00000020: d308 023e 2b0f 30be 6d8a 51be 98cf 643e
00000030: 55dc a53d 9ddc 46bd df3d fb3d c46c f9bd
00000040: 2846 f03d e864 653e 5cb6 21be 0798 06be
00000050: 3f33 153e c63c bebd 6ed6 26be 3ce8 283e
00000060: ebee 503e c92d 2fbe 5395 7dbd 867f 0e3e
00000070: b0e3 24be 78a9 143e b9b8 e3bd d490 e4bd
00000080: 5ccb 54be 3dfd 303d 35fc a2bd a103 cc3c
00000090: 8b36 193d e7ef 93bd 82e6 8a3c 641c 46be
000000a0: f8de 37be 3d8f eebd 1a2f 4b3e 25e3 ef3d
000000b0: 343b 523e b74d 2e3e ff56 e5bd 87bd efbd
000000c0: 7614 283d 26b5 5dbd 7f65 113c 0df2 5fbe
000000d0: 6598 2abe 35ae 52be f8de a93d c809 9dbd
000000e0: 0110 2fbe 45d5 883c 8421 fbbd 03a4 06be
000000f0: 90f8 57be fea4 923c f2d5 06be 4725 39be
00000100: 6f58 353e cf65 46be c089 94bd 21e9 d33d
00000110: ef0e 8b3d ad43 613e b482 8cbd b7fc c03c
00000120: 0f5f bcbd 951a 61be 3ea3 52be 762a 90bd
00000130: 1c0e 6abe 2249 4abe bbb1 01be 177c 063e
00000140: 0e5d 9e3d ad2a fbbd 3bdd ebbd e8a9 303e
00000150: 24d2 12be f95a 343e 65be cbbd 0f8b 9b3d
00000160: 426d 82bd 45da 53be 8901 bd3d 4a99 b33b
00000170: aa0c cfbd f066 5f3d 845f 643e ec65 2cbe
00000180: bb1e b63d 7a4a cd3d 3d59 9abd 42c0 033e
00000190: 1f1c 033e 27d5 903d e41b 4d3e f256 27be
000001a0: bf90 803d f9d2 d13d 8ed6 973d 1073 99bd
000001b0: 83a3 c13d 8e51 11be 8f81 e63c d37a 8fbd
000001c0: 4da1 4a3e a4d3 8ebc 2cbe 4fbe 80f6 15be
000001d0: c96c 983c 5c9a de3c 912e 193d b001 8a3d
000001e0: 9e89 e63b edbd 543e eb99 263e bb47 90bd
000001f0: 524a 70be 807f 353e d930 6b3e bcbc 1bbe
00000200: a0c8 ff3d 6c25 1ebe 2217 06bd abfa 463e
00000210: cc60 41be 0adf b2bd 02b4 3f3e ae2a 0dbe
00000220: 82c9 2fbe eff7 4f3e ed97 b4bd 2645 37bd
00000230: 16dd 3ebd 859c c1bd 7638 5d3d bcf5 f63d
00000240: 72b0 373e 8e41 a83d 9e0e e6bd 8245 4c3e
00000250: 5980 623e 5435 2c3e a7d4 203d 7ad4 dabd
00000260: 7b00 3abe 97c4 bd3d 03f2 85bc 61d6 263e
00000270: cab1 c5bd 1ccd 44be b709 bbbd fc08 213e
00000280: 041c 163e 507a 43be b506 e8bd 6e82 823b
00000290: eceb 853d aaa2 543e ccc7 c63d 176d e43c
000002a0: 48be b13d 6b96 aabd 21f8 803b b97a 34be
000002b0: 54f2 03be f4ae 58bc 2cec 3ebe 0d51 46be
000002c0: 0d94 00bd ec62 f0bd e6f9 97bd 61f2 a63b
000002d0: 1f83 ea3d cc8b e0bc c7b8 513e 3dae 9e3c
000002e0: 95fd 6e3e e25b 363e 428b 5b3a 68a0 42bd
000002f0: 610b 073e 3b99 e5bd b2d1 2b3e b47c 29be
00000300: 5885 373e 86ba 48be d22b bc3d 1c75 35be
00000310: 236a 55be f299 a83b 3b18 51be 48f3 02be
00000320: a6ad 51bd bc47 563d 8497 7e3d 6290 41be
00000330: 1e5c c33d 2627 353e ef22 33be 63e9 9339
00000340: 62d7 e1bd 9f56 033e 4dbd 0a3e 161b ac3d
00000350: a0ae 143e 25f2 1a3e 88b9 2cbd c8b1 4fbd
00000360: fe46 473e 914e b43d 92fa 383e ebac 6c3e
00000370: 68be b8bd 1b35 32be d186 85bd 9dd3 d5bc
00000380: 4c7c c73d ef99 0ebc 352c 0e3d 1972 5fbb
00000390: 855f 9d3d f369 6d3d 8573 44be e817 00bd
000003a0: 4869 5cbd 1e9a d6ba f2e2 28be eb58 6dbe
000003b0: 501c f23d d31f 563e 7d21 4cbe 9037 17bc
000003c0: 528f 673d 2912 0a3e 349b 64be 1540 2dbe
000003d0: 0c9f 233e f153 afbd 3766 36be e796 233e
000003e0: 2e54 4cbd c99e 67be 4aaf a13d dbed 3abd
000003f0: 2f5e b3bd 2567 4c3e bd6a 2f3d 7a3c a6bc

_1_1_conv.3.bias f4 [18]
0.16253108 0.040853493 0.12885232 -0.1309717 0.022498576 0.17592584 -0.011114931 -0.21785799
-0.015545426 0.13256356 -0.012484157 0.07066933 0.1742206 0.020360798 0.120735265 -0.22887553
0.20164116 0.16693377
00000000: 8c6e 263e fe55 273d ddf1 033e 721d 06be
00000010: ef4e b83c e725 343e 661b 36bc 2a16 5fbe
00000020: 3eb2 7ebc bebe 073e 5a8a 4cbc 15bb 903d
00000030: e366 323e b0cb a63c 0d44 f73d 595e 6abe
00000040: 057b 4e3e b0f0 2a3e

_1_1_conv.4.weight f4 [18, 18, 1, 1]
0.15285304 -0.14734812 -0.20599064 0.014543534 -0.14749895 0.21983112 -0.12255008 -0.20514931
-0.1154192 0.09841091 -0.04392232 0.19835281 0.03570688 0.028965425 0.0046123066 -0.220571
-0.07041478 0.11804762 0.026433641 -0.114943475 -0.050487455 0.13668917 -0.19137514 -0.13202922
-0.053872377 0.049567387 -0.2031852 0.09447352 -0.053985607 -0.054396763 -0.19390696 -0.019167174
0.17568858 -0.07614663 0.1700883 -0.14341414 0.22055228 -0.21200122 -0.040259305 -0.22041148
0.119949 -0.09325814 -0.06319295 0.11298818 -0.13725421 0.078147106 0.08290468 0.15441416
0.0047911284 0.02867565 -0.07195641 -0.20673345 -0.059468057 -0.1750451 0.1530007 0.2202402
-0.0950199 0.10932985 -0.20175765 0.09582143 -0.03399155 0.1086785 -0.21770808 0.059573244
0.046994735 0.062229473 0.05474215 0.1466626 0.026093496 -0.015974414 0.122686476 -0.21664077
-0.21687587 -0.1889394 -0.10866849 0.14466758 -0.1380907 -0.061933897 -0.040889997 -0.097056694
0.08946334 -0.062174123 0.2050046 0.07301066 0.20863557 0.102108054 0.017551929 -0.23109421
-0.08377368 0.18499774 -0.05814671 -0.14867526 -0.23597336 0.15812533 0.0366283 -0.0937092
-0.0459751 -0.1116073 0.10999842 0.04032437 0.046382584 -0.20294815 -0.14748663 0.089507446
-0.06165011 0.18893138 0.17470081 0.149307 0.21453895 0.03971715 0.07505219 -0.11466045
-0.22484985 -0.09224158 0.19608437 0.04170272 0.15767094 -0.120741904 -0.20799273 0.22969763
0.15972869 0.2036809 0.13570158 -0.037675776 0.017886566 -0.22427925 -0.04357223 0.11027003
-0.045935474 -0.022742901 0.10957456 -0.1633699 0.0038282569 0.19442473 -0.15865761 -0.17373113
0.18977953 -0.068909325 -0.2003746 0.13277997 0.050277237 0.16302918 0.04104388 -0.025232486
-0.16444702 0.047184248 -0.1558474 0.08642437 0.09789376 0.22633184 -0.22842878 -0.012447357
0.11886645 -0.171625 0.2296254 0.07696285 -0.08495691 0.17875288 -0.21265161 -0.068302974
0.10164815 -0.0274854 0.09046533 -0.1924801 0.031604663 -0.1790984 -0.048462193 0.08327424
0.028789189 -0.09239428 -0.21691366 -0.17476255 -0.10435381 -0.2123686 -0.1770778 -0.07352053
-0.16787678 -0.1766042 0.109827854 0.10881966 0.11872382 -0.051259704 0.06466753 0.12209196
0.15643841 -0.059517715 0.04004141 -0.06740005 0.07358686 0.046519853 -0.048175663 0.03819073
-0.0029589103 -0.17744116 -0.0894371 0.23259039 0.1467593 -0.15106852 -0.059715297 -0.17201918
-0.1392369 0.09701202 0.08659336 -0.22937793 -0.1694796 0.20068565 -0.029092686 0.00959596
-0.2325527 -0.071344234 0.18618685 -0.12922588 0.05912183 0.18722853 0.12598954 0.18209948
0.13081795 0.15492223 0.1905376 0.14850609 -0.1901984 0.16804862 -0.23137346 -0.107973054
-0.022886751 -0.0955263 0.20368241 0.21782453 -0.098864995 -0.15511681 -0.004741906 0.07416073
-0.1881698 0.09855554 0.13562422 -0.1884761 -0.023957413 -0.15683815 -0.06532405 -0.14510122
-0.07071578 -0.06609975 -0.11468313 -0.10738898 -0.21238899 -0.008857989 -0.15255699 -0.09182715
0.12624937 -0.053079512 -0.03881952 0.08468616 -0.13469791 0.13814835 -0.2145134 -0.094548054
00000000: 8285 1c3e 6de2 16be 36ef 52be 0148 6e3c
00000010: f709 17be 691b 613e 89fb fabd a912 52be
00000020: e760 ecbd a98b c93d e4e7 33bd 001d 4b3e
00000030: 6141 123d e648 ed3c d522 973b 5ddd 61be
00000040: a035 90bd f3c2 f13d 5d8b d83c 7c67 ebbd
00000050: efcb 4ebd 3ff8 0b3e d8f7 43be ab32 07be
00000060: 48a9 5cbd 2c07 4b3d c80f 50be 557b c13d
00000070: 0320 5dbd 24cf 5ebd 8c8f 46be 7a04 9dbc
00000080: b5e7 333e c4f2 9bbd a12b 2e3e 28db 12be
00000090: 75d8 613e d916 59be f1e6 24bd 8cb3 61be
000000a0: d2a7 f53d 20fe bebd 4e6b 81bd 5966 e73d
000000b0: 5e8c 0cbe 970b a03d eec9 a93d bf1e 1e3e
000000c0: e6fe 9c3b 32e9 ea3c e25d 93bd efb1 53be
000000d0: c794 73bd 063f 33be 37ac 1c3e a686 613e
000000e0: cb99 c2bd 54e8 df3d 8f99 4ebe 073e c43d
000000f0: b93a 0bbd d592 de3d deee 5ebe 1303 743d
00000100: 8d7d 403d 55e4 7e3d 4e39 603d b82e 163e
00000110: 07c2 d53c c6dc 82bc 0c43 fb3d 14d7 5dbe
00000120: b514 5ebe 5479 41be 968d debd bd23 143e
00000130: a667 0dbe 66ae 7dbd 457c 27bd a9c5 c6bd
00000140: 8e38 b73d 4baa 7ebd baec 513e 9d86 953d
00000150: 90a4 553e 071e d13d 10c9 8f3c f6a3 6cbe
00000160: 8991 abbd 0c70 3d3e 3f2b 6ebd 543e 18be
00000170: 00a3 71be 9beb 213e 8e07 163d 9cea bfbd
00000180: 6350 3cbd 5e92 e4bd da46 e13d 2b2b 253d
00000190: aafb 3d3d a4d1 4fbe bc06 17be ae4f b73d
000001a0: d384 7cbd 3a77 413e c5e4 323e efe3 183e
000001b0: 19b0 5b3e 73ae 223d f6b4 993d 19d3 eabd
000001c0: 0a3f 66be 27e9 bcbd 57ca 483e 79d0 2a3d
000001d0: 7e74 213e 8847 f7bd 0cfc 54be db35 6b3e
000001e0: eb8f 233e ba91 503e 5bf5 0a3e ea51 1abd
000001f0: d986 923c 76a9 65be cb78 32bd 41d5 e13d
00000200: d626 3cbd 524f babc a068 e03d 704a 27be
00000210: 7ee3 7a3b 4717 473e 2477 22be 93e6 31be
00000220: 9155 423e 5520 8dbd 002f 4dbe 79f7 073e
00000230: 81ef 4d3d 1ff1 263e a11d 283d 5cb4 cebc
00000240: cd64 28be 4544 413d 7696 1fbe 43ff b03d
00000250: 867c c83d 89c3 673e 3ce9 69be 00f0 4bbc
00000260: 4170 f33d 77be 2fbe ec22 6b3e b39e 9d3d
00000270: e3fd adbd ff0a 373e 58c1 59be 6ee2 8bbd
00000280: e82c d03d 1029 e1bc e345 b93d 8119 45be
00000290: e473 013d 9265 37be 4b80 46bd af8b aa3d
000002a0: 4ed7 eb3c 3639 bdbd 9d1e 5ebe f4f4 32be
000002b0: 73b7 d5bd 2777 59be e253 35be ee91 96bd
000002c0: e4e7 2bbe bbd7 34be 6ded e03d d8dc de3d
000002d0: 7925 f33d b2f5 51bd 6970 843d 590b fa3d
000002e0: 6431 203e d9c8 73bd 7602 243d 0a09 8abd
000002f0: b5b4 963d 9a8b 3e3d d853 45bd e26d 1c3d
00000300: 47ea 41bb 23b3 35be cc2a b7bd 2d2c 6e3e
00000310: 1248 163e b5b1 1abe 0798 74bd cc25 30be
00000320: 1e94 0ebe 3dae c63d dc57 b13d 0ce2 6abe
00000330: 0f8c 2dbe 8a80 4d3e c953 eebc 6038 1d3c
00000340: 4c22 6ebe ed1c 92bd c4a7 3e3e ca53 04be
00000350: bb29 723d d6b8 3f3e 6703 013e 4978 3a3e
00000360: 24f5 053e efa3 1e3e 4a1c 433e fb11 183e
00000370: 5fc3 42be f014 2c3e 2aed 6cbe fa20 ddbd
00000380: ff7c bbbc 4ba3 c3bd 1f92 503e 650d 5f3e
00000390: bb79 cabd f1d6 1ebe fe61 9bbb 95e1 973d
000003a0: 96af 40be 7dd7 c93d 13e1 0a3e e1ff 40be
000003b0: 5642 c4bc 2e9a 20be 9ec8 85bd 6a95 14be
000003c0: 6fd3 90bd 4e5f 87bd fdde eabd c1ee dbbd
000003d0: 807c 59be 1921 11bc e637 1cbe df0f bcbd
000003e0: 8447 013e e769 59bd 3801 1fbd f06f ad3d
000003f0: 40ee 09be c376 0d3e 67a9 5bbe 69a2 c1bd

_1_1_conv.4.bias f4 [18]
-0.05816349 0.15359205 0.0990178 0.031476587 -0.02131966 -0.044526882 -0.21100609 0.09645404
-0.06529354 -0.17009102 -0.19394283 -0.018136723 0.0033648193 -0.11024868 0.03436869 0.18789288
-0.13779184 -0.014257435
00000000: d73c 6ebd 3c47 1d3e d8c9 ca3d 98ed 003d
00000010: 91a6 aebc d261 36bd fb11 58be b289 c53d
00000020: 9fb8 85bd 572c 2ebe f398 46be 7793 94bc
00000030: 4d84 5c3b 0fca e1bd 2fc6 0c3d fe66 403e
00000040: 4e19 0dbe 0498 69bc

_3_3_conv.0.weight f4 [6, 6, 3, 3]
-0.09092028 -0.0033234237 0.13454889 -0.10527878 -0.099382974 0.09118044 -0.11603366 -0.073897384
0.013227699 -0.13410547 -0.042699 -0.031120662 0.06967371 0.09445358 -0.013496691 0.08835702
-0.096390806 -0.114857234 0.10182428 0.13343313 -0.12485034 0.09089743 0.09648299 0.08136493
0.0144410655 -0.11480764 -0.05074983 -0.041557275 0.031847116 -0.10833637 -0.048138484 -0.12545425
-0.037929434 -0.043461196 -0.0723197 -0.0046374416 0.050662886 -0.0056899674 0.0020266052 -0.028201757
0.0017589157 -0.092338845 -0.10988846 0.0066820164 0.027716594 0.099173985 -0.041385796 0.13387313
-0.10944896 0.069660544 -0.08346388 -0.0948132 0.05604501 0.04853799 -0.030552857 0.12068726
-0.05460861 -0.08306594 0.11614521 -0.06479577 0.12858394 0.0957599 0.012687847 -0.019521678
0.10539981 0.04533567 0.13430168 -0.079778 -0.13689086 -0.0445555 0.050289214 -0.008413995
-0.015258104 -0.11604415 0.09755895 -0.13743119 -0.13306753 -0.07199921 -0.07511562 0.10118376
-0.010138026 0.09244098 0.117502555 -0.004796798 0.01970785 -0.060013544 -0.028417548 0.049902756
0.075625114 0.039080374 -0.04624504 -0.066431366 -0.07376042 0.06357711 -0.034976132 -0.04339396
0.0691395 -0.0075466936 0.007057614 0.033747423 0.06457829 -0.011072498 0.006585157 -0.0015130094
-0.13887405 0.048220564 -0.091666445 -0.13903224 0.007333754 0.049088437 0.0797201 -0.11536083
-0.05619516 -0.037548132 0.12322321 0.050451845 0.024610596 0.09258098 -0.035187602 -0.13957664
0.10700021 -0.09777628 -0.0786492 -0.052919943 -0.12864108 -0.12512158 0.00875379 -0.063519
-0.038897194 -0.054258212 0.09027957 -0.08911111 -0.042764038 -0.056597997 0.12038878 0.04959033
0.08199735 0.04446432 -0.04642213 0.056361318 -0.08768492 0.0046009123 -0.11569769 0.0074004643
-0.13145907 -0.027472029 -0.12013827 0.0046563726 0.121889375 -0.11326028 0.035387043 0.036201175
0.112772115 0.09505137 0.07222381 -0.111400194 0.089407764 -0.06807072 0.07590766 -0.06311237
-0.04948583 0.11649027 0.12126432 0.09802904 -0.0587439 -0.10572831 0.07419107 0.049661484
-0.09779882 0.09838041 0.049036108 0.046088662 0.047500636 -0.08922544 -0.062988736 -0.022847338
-0.012100061 0.040778246 -0.11978352 0.031687837 -0.12646785 -0.106007494 0.08557049 -0.08009655
-0.014805556 -0.004295095 -0.05618975 0.047710545 0.03761875 0.03859196 -0.0441529 -0.048443567
-0.1431904 -0.093556896 0.06005629 -0.08572376 -0.061334178 -0.14231189 0.029647473 -0.12261498
-0.115574926 -0.0062923185 -0.0017876418 -0.11070304 -0.019892877 -0.015393166 0.11340963 0.05093485
-0.008805399 0.13151336 -0.0012311478 0.12491279 -0.12312067 0.03593475 0.13501377 0.0887251
-0.1119887 0.06550819 0.092652 0.11483539 0.063318245 0.050179772 -0.020822199 0.11953689
-0.07205683 0.068129614 0.09208095 -0.06586518 0.10179075 -0.12694837 -0.058979876 -0.12365526
-0.022731429 -0.11576326 -0.1187568 0.058197655 -0.06738259 0.056312002 0.086202875 0.094467536
-0.02388657 0.0341573 -0.06480782 -0.023212535 0.048931878 -0.04511475 -0.06700084 0.009955248
0.12698342 0.09383752 -0.096670955 -0.04974256 -0.020123351 -0.12736443 -0.03943756 0.06678185
00000000: 6934 babd cccd 59bb 2fc7 093e 679c d7bd
00000010: 4d89 cbbd cfbc ba3d 0ea3 edbd 8357 97bd
00000020: feb8 583c f252 09be 26e5 2ebd c2f0 febc
00000030: 17b1 8e3d e170 c13d 3a21 5dbc 86f4 b43d
00000040: 8b68 c5bd 453a ebbd 4089 d03d b2a2 083e
00000050: 89b1 ffbd 6f28 ba3d e098 c53d a8a2 a63d
00000060: 389a 6c3c 4520 ebbd 0edf 4fbd f637 2abd
00000070: 1f72 023d 75df ddbd dc2c 45bd 1477 00be
00000080: e55b 1bbd 5e04 32bd 5a1c 94bd aef5 97bb
00000090: e383 4f3d e872 babb cbd0 043b 5f07 e7bc
000000a0: 6b8b e63a 261c bdbd 330d e1bd d1f4 da3b
000000b0: e90d e33c bb1b cb3d 2784 29bd 0a16 093e
000000c0: c726 e0bd 30aa 8e3d 1cef aabd 6c2d c2bd
000000d0: 748f 653d c5cf 463d fc49 fabc e22a f73d
000000e0: 47ad 5fbd 7a1e aabd 8add ed3d a5b3 84bd
000000f0: 82ab 033e c41d c43d b0e0 4f3c edeb 9fbc
00000100: dbdb d73d e5b1 393d 6186 093e a662 a3bd
00000110: 1e2d 0cbe d47f 36bd 10fc 4d3d dada 09bc
00000120: 20fd 79bc 8ea8 edbd fdcc c73d c3ba 0cbe
00000130: db42 08be 5274 93bd 38d6 99bd 6e39 cf3d
00000140: f719 26bc b251 bd3d 2ea5 f03d 752e 9dbb
00000150: 5b72 a13c c3d0 75bd ebcb e8bc d566 4c3d
00000160: 57e1 9a3d be12 203d 706b 3dbd 2b0d 88bd
00000170: b40f 97bd b734 823d 2243 0fbd ddbd 31bd
00000180: 0399 8d3d 414a f7bb 8f43 e73b bd3a 0a3d
00000190: 9f41 843d 6c69 35bc 4dc8 d73b 2c50 c6ba
000001a0: 0035 0ebe ed82 453d 9ebb bbbd 785e 0ebe
000001b0: fd4f f03b f510 493d 4b44 a33d 4d42 ecbd
000001c0: e52c 66bd 12cc 19bd 735c fc3d 98a6 4e3d
000001d0: 299c c93c 199b bd3d e020 10bd 2eed 0ebe
000001e0: ed22 db3d ee3e c8bd d512 a1bd 95c2 58bd
000001f0: 7dba 03be df1f 00be 0e6c 0f3c 4016 82bd
00000200: aa52 1fbd dc3d 5ebd 7fe4 b83d e37f b6bd
00000210: 5829 2fbd 4dd3 67bd 658e f63d 3b1f 4b3d
00000220: 3aee a73d 3820 363d 2225 3ebd 20db 663d
00000230: 2794 b3bd 40c3 963b e9f2 ecbd 987f f23b
00000240: 359d 06be 050d e1bc 0e0b f6bd 7c94 983b
00000250: 23a1 f93d 01f5 e7bd 01f2 103d af47 143d
00000260: 11f5 e63d 4baa c23d 14ea 933d c925 e4bd
00000270: 6b1b b73d a968 8bbd 7a75 9b3d 0f41 81bd
00000280: a7b1 4abd 7392 ee3d 6e59 f83d 73c3 c83d
00000290: 729d 70bd 1688 d8bd 7df1 973d d769 4b3d
000002a0: bf4a c8bd ab7b c93d 16da 483d 77c7 3c3d
000002b0: 0790 423d d4bb b6bd 3d00 81bd 572a bbbc
000002c0: 563f 46bc 1707 273d 1051 f5bd 1bcb 013d
000002d0: ca80 01be 751a d9bd 953f af3d a909 a4bd
000002e0: 0193 72bc debd 8cbb 3927 66bd 226c 433d
000002f0: 1e16 1a3d 9a12 1e3d acd9 34bd c36c 46bd
00000300: 81a0 12be c29a bfbd 96fd 753d f08f afbd
00000310: 8c39 7bbd 35ba 11be 42df f23c 901d fbbd
00000320: 8cb2 ecbd cb2f cebb 4e4f eaba 47b8 e2bd
00000330: 63f6 a2bc 9e33 7cbc 4f43 e83d 10a1 503d
00000340: 8544 10bc 70ab 063e 775e a1ba 47d2 ff3d
00000350: b126 fcbd 5130 133d 0d41 0a3e 81b5 b53d
00000360: 555a e5bd 2829 863d 55c0 bd3d d12e eb3d
00000370: ffac 813d 4e89 4d3d 5193 aabc c2cf f43d
00000380: 8892 93bd 8a87 8b3d f094 bc3d 53e4 86bd
00000390: ab77 d03d c1fe 01be e294 71bd f83e fdbd
000003a0: 4337 babc 4a15 edbd c436 f3bd aa60 6e3d
000003b0: e2ff 89bd 6aa7 663d 228b b03d 3278 c13d
000003c0: c5ad c3bc 86e8 0b3d f6b9 84bd 3728 bebc
000003d0: cb6c 483d 3eca 38bd bd37 89bd 561b 233c
000003e0: f107 023e e32d c03d 6cfb c5bd dbbe 4bbd
000003f0: bad9 a4bc d26b 02be 4789 21bd ecc4 883d

_3_3_conv.0.bias f4 [6]
0.033747315 0.09108907 -0.039797157 -0.13581094 0.10203251 -0.06622796
00000000: a03a 0a3d e88c ba3d 5802 23bd 0612 0bbe
00000010: 6cf6 d03d 86a2 87bd

_3_3_conv.1.weight f4 [9, 18, 3, 3]
-0.04615575 -0.02830343 -0.05680602 0.043255467 -0.06622632 -0.028896248 -0.017132072 -0.07210231
-0.007784458 0.04856001 -0.0020405839 -0.031478487 0.068328194 0.059169587 -0.028042799 -0.02015572
-0.064515226 0.01761323 -0.05271192 -0.07087848 0.039251808 -0.021976538 0.034770634 0.03856268
-0.0055815065 -0.0048910137 0.017495615 -0.06063695 0.052101847 -0.014804028 0.062150083 0.021123447
0.070862874 0.0062356554 -0.01320585 0.040625338 0.010263683 0.02181244 -0.0390042 -0.041359674
-0.008106703 0.07582654 0.07180087 0.008424336 0.05439887 -0.037554584 -0.03453002 0.03437735
-0.00044746313 0.054296356 -0.02940923 0.004359008 -0.02829928 -0.041325137 -0.03333116 0.03724274
-0.021452399 -0.03781358 0.032541957 -0.04121799 0.055254605 0.02883999 -0.05535465 -0.05653069
0.03880369 -0.07777592 0.04873077 0.069022894 -0.028113887 -0.0380037 0.0030883881 -0.020190308
0.007799999 -0.052859005 -0.012570719 -0.0769411 -0.034558225 -0.048540585 0.0625617 0.026570925
0.04145114 0.024789592 -0.025771977 0.033409692 0.078685895 0.0337218 0.049809363 0.063863054
0.0069286847 0.03570517 0.03934015 0.024129005 0.06153544 0.04180713 0.03872326 0.004019408
-0.0024561975 -0.04955291 -0.009415998 0.052784406 0.03893101 -0.061310064 -0.009417413 -0.0732903
-0.0041161217 0.0027755222 0.07820135 0.031789776 -0.01493379 -0.06897099 0.061577536 -0.020055272
0.00064836885 0.032174956 0.021549353 0.011088377 -0.02240002 -0.025655484 0.05779527 -0.05167585
-0.04675349 -0.02400781 -0.052179456 0.051138498 -0.0012515679 -0.055611257 0.015364472 0.068333365
-0.03538855 0.018229788 -0.054963715 0.056159154 0.039692156 -0.03351321 -0.054216687 0.047280394
-0.03463725 0.03486115 0.03992381 0.07404821 0.043381684 0.03350044 0.017972587 -0.027106773
0.06139072 0.055264108 -0.018261196 0.027806194 0.07442609 0.021705102 -0.008946865 -0.009765293
-0.007773562 -0.008045463 0.04906481 0.033257015 0.041937605 0.023881894 0.016459081 -0.0015935556
-0.04447836 -0.054810815 0.032540113 0.017970571 0.0065557933 0.0036198217 -0.016027013 -0.06345288
0.029529652 -0.029060882 0.070134476 0.0038411114 -0.04145405 0.021618968 0.0015347748 0.05272938
-0.071110405 -0.04710458 -0.07179062 0.002508237 -0.055138398 0.044221144 0.04770482 0.044341404
-0.032400273 -0.0022439584 -0.032378756 0.054970548 0.052954365 -0.06192159 0.052589264 -0.04893297
-0.01194819 -0.07161401 -0.03351746 -0.07301467 -0.0020990926 0.038739707 -0.044866856 0.004884527
-0.041250613 0.012946811 0.019748073 0.019828029 -0.07227098 0.05249766 0.060605295 -0.020296749
-0.053810775 -0.045120154 0.0020281344 -0.06821275 -0.037243377 0.012445299 0.015933199 -0.077237554
0.06823776 0.039216403 -0.035898916 0.058321208 -0.046484545 -0.05720887 -0.055995636 -0.039801124
-0.0061420817 0.07727095 0.06587021 0.035935406 0.018728958 -0.0061373925 -0.055381976 0.032179523
0.03405912 -0.0061937934 0.027010381 -0.03281071 0.001813891 0.0010843866 -0.054580044 -0.0363444
0.018710408 0.07481145 0.0052702473 0.03769568 0.034612108 0.022881111 0.060544875 0.048100773
0.03643718 -0.034101203 -0.0029874675 -0.038720913 -0.007873828 0.047421634 0.047253214 0.019635193
00000000: d00d 3dbd 98dc e7bc 6ead 68bd a52c 313d
00000010: aaa1 87bd d3b7 ecbc 8f58 8cbc 60aa 93bd
00000020: c414 ffbb dce6 463d 51bb 05bb 96ef 00bd
00000030: a7ef 8b3d cf5b 723d 03ba e5bc 9c1d a5bc
00000040: 8f20 84bd 9f49 903c 74e8 57bd bd28 91bd
00000050: 81c6 203d 2408 b4bc a76b 0e3d e7f3 1d3d
00000060: 12e5 b6bb cc44 a0bb f752 8f3c 735e 78bd
00000070: bf68 553d 988c 72bc 1691 7e3d 140b ad3c
00000080: 8e20 913d 7854 cc3b 595d 58bc c166 263d
00000090: 0229 283c 01b0 b23c dec2 1fbd c368 29bd
000000a0: fad1 04bc f24a 9b3d 560c 933d 3a06 0a3c
000000b0: 59d1 5e3d d6d2 19bd 5a6f 0dbd 44cf 0c3d
000000c0: 7c99 eab9 db65 5e3d a0eb f0bc 02d6 8e3b
000000d0: e4d3 e7bc 8c44 29bd 4186 08bd d88b 183d
000000e0: f1bc afbc 6ae2 1abd b74a 053d 32d4 28bd
000000f0: a752 623d d841 ec3c 8fbb 62bd ba8c 67bd
00000100: 9ef0 1e3d fb48 9fbd ea99 473d e05b 8d3d
00000110: 184f e6bc c5a9 1bbd 8e66 4a3b 2566 a5bc
00000120: 2297 ff3b af82 58bd 6bf5 4dbc 4c93 9dbd
00000130: ed8c 0dbd 7ed2 46bd 5920 803d 45ab d93c
00000140: acc8 293d 8b13 cb3c c11f d3bc 9ad8 083d
00000150: 1226 a13d df1f 0a3d e704 4c3d a2ca 823d
00000160: 050a e33b 963f 123d 2323 213d 31aa c53c
00000170: 960c 7c3d f43d 2b3d 489c 1e3d 3db5 833b
00000180: 28f8 20bb fef7 4abd 8f45 1abc 7634 583d
00000190: 1f76 1f3d 4320 7bbd 7e4b 1abc 3a19 96bd
000001a0: 88e0 86bb 89e5 353b 0828 a03d ff35 023d
000001b0: dbac 74bc aa40 8dbd ba38 7c3d f44a a4bc
000001c0: 4cf7 293a e3c9 033d 4588 b03c 06ac 353c
000001d0: 3f80 b7bc 732b d2bc bcba 6c3d 0eaa 53bd
000001e0: 9680 3fbd 07ac c4bc 20ba 55bd 9a76 513d
000001f0: a60b a4ba a1c8 63bd 44bb 7b3c 5df2 8b3d
00000200: 96f3 10bd a356 953c a221 61bd 2407 663d
00000210: 3e94 223d 2645 09bd 5112 5ebd 16a9 413d
00000220: cadf 0dbd 91ca 0e3d 2687 233d 97a6 973d
00000230: feb0 313d c237 093d 3f3b 933c 060f debc
00000240: d674 7b3d 9e5c 623d 8198 95bc d1c9 e33c
00000250: b56c 983d e6ce b13c df95 12bc 9cfe 1fbc
00000260: 5db9 febb 1ed1 03bc 2ff8 483d 8238 083d
00000270: c4c6 2b3d f6a3 c33c 32d5 863c dade d0ba
00000280: f12e 36bd 4e81 60bd c848 053d 0537 933c
00000290: fbd1 d63b 883a 6d3b 154b 83bc 95f3 81bd
000002a0: 2be8 f13c 1611 eebc aaa2 8f3d 28bb 7b3b
000002b0: b9cb 29bd 431a b13c 7f2a c93a c3fa 573d
000002c0: 55a2 91bd bbf0 40bd f606 93bd 3c61 243b
000002d0: cdd8 61bd 3b21 353d 2166 433d 559f 353d
000002e0: 26b6 04bd 600f 13bb 969f 04bd cc28 613d
000002f0: ade6 583d 7ea1 7dbd d767 573d f06d 48bd
00000300: 57c2 43bc 5eaa 92bd 9b49 09bd b788 95bd
00000310: ee90 09bb 87ad 1e3d 4fc6 37bd 620e a03b
00000320: 67f6 28bd dc1e 543c b6c6 a13c 646e a23c
00000330: cf02 94bd c907 573d 423d 783d 5e45 a6bc
00000340: b068 5cbd e9cf 38bd 73ea 043b 20b3 8bbd
00000350: 838c 18bd 5ee7 4b3c 5786 823c b92e 9ebd
00000360: 3dc0 8b3d 61a1 203d be0a 13bd 38e2 6e3d
00000370: 9466 3ebd d953 6abd ae5b 65bd 8106 23bd
00000380: 8443 c9bb 3b40 9e3d f6e6 863d 0131 133d
00000390: 796d 993c 2e1c c9bb 36d8 62bd adce 033d
000003a0: 9381 0b3d 4ef5 cabb e044 dd3c 8664 06bd
000003b0: 15c0 ed3a fa21 8e3a 538f 5fbd dedd 14bd
000003c0: 9246 993c bf36 993d 0ab2 ac3b c966 1a3d
000003d0: 6dc5 0d3d 2b71 bb3c e7fd 773d 5105 453d
000003e0: 273f 153d b4ad 0bbd 63c9 43bb d299 1ebd
000003f0: 3a01 01bc 303d 423d 968c 413d fcd9 a03c

_3_3_conv.1.bias f4 [9]
-0.042894892 0.007968545 -0.008230135 0.054622285 -0.012043744 0.07219278 -0.02482706 0.0055440813
0.030982696
00000000: 8eb2 2fbd 808e 023c b0d7 06bc 9ebb 5f3d
00000010: 2053 45bc cfd9 933d 1e62 cbbc 20ab b53b
00000020: 6ccf fd3c

_3_3_conv.2.weight f4 [18, 36, 3, 3]
0.02963706 0.036735095 -0.011216602 -0.0022589657 -0.055355992 -0.009988812 0.04430141 -0.050424602
0.05064227 -0.029535716 0.021066628 -0.025160028 -0.019379158 0.031070465 -0.033913046 0.015586166
0.030531926 -0.002067078 0.008456133 0.009347424 0.014486834 0.0012376263 -0.032197256 0.022490531
-0.019755865 0.00015617865 -0.03131405 0.004589447 -0.028009305 0.012924594 -0.05440875 0.0039090593
-0.0568796 -0.012352394 0.03960093 -0.05509486 0.029591888 0.0489244 -0.013957494 0.026106944
0.023673242 0.008967611 -0.031453464 0.053196438 -0.041901797 -0.0378402 -0.014378867 -0.0416004
-0.021549143 -0.035520963 -0.029411199 -0.021490002 -0.019175235 0.016819442 0.051556334 0.0450196
-0.013825564 -0.04646902 -0.016802784 0.0043480587 -0.052695546 -0.0051256907 0.03666184 -0.060972434
0.01805429 0.0060266242 -0.015736796 -0.026468948 0.012648748 -0.051997017 0.010132716 0.026247311
0.043399416 -0.035640005 -0.053173173 0.026435811 -0.013238499 -0.05619615 -0.008514942 -0.041380137
-0.03540035 -0.004649482 0.027664043 -0.02512465 0.038130425 -0.022200132 0.024398327 -0.034401115
-0.033605043 -0.0048796055 -0.04375917 -0.05141262 -0.002835238 0.01662797 -0.028086264 0.012358678
-0.05305271 -0.037240107 0.011204994 0.01899201 -0.04515301 -0.002148619 0.029188799 -0.034408562
0.0116097415 -0.017306153 0.04269013 0.034732167 0.042867295 -0.028776841 -0.040107876 0.04867933
0.043779515 -0.057523068 0.014502161 -0.023249703 -0.00530724 0.00740229 0.017485373 -0.0018696391
0.026341408 0.009810083 -0.0016643202 -0.04190298 -0.034351062 0.03126605 0.003387801 0.043026153
-0.0060244724 -0.0110851405 -0.042485498 0.04101908 0.019318167 0.0363601 0.026351316 -0.03656432
0.039437488 0.0025041904 -0.05803017 0.035596557 0.017112842 -0.0032100794 0.0059446776 0.038745314
0.02279532 -0.017443573 0.02909621 0.018533679 -0.00078131555 -0.03158998 -0.06067953 -0.012217887
0.018230958 -0.016833857 0.03070687 0.04862869 -0.012006102 -0.026689641 -0.03677195 -0.03993468
-0.024397772 -0.033157103 0.023896543 0.0486374 0.051383436 0.025594978 -0.03660483 0.0075407573
-0.032553658 -0.0205469 0.02202889 -0.05206598 -0.04595126 -0.046684608 -0.034731384 0.04595613
0.05663768 -0.048870265 0.018912036 -0.017464163 -0.04029238 0.034066476 -0.019191146 0.020840807
0.041534692 -0.052689936 -0.047134273 -0.0329093 -0.047446974 0.008911066 -0.050958414 0.049944475
0.016475284 0.014082897 -0.033129297 0.055054702 -0.026100164 0.0033548851 -0.013621873 0.052167974
-0.002459526 0.047808368 -0.008436039 0.051391717 -0.043234415 0.036858827 -0.04018378 -0.044870812
-0.026147129 -0.0068598595 0.03164781 -0.010777955 0.012018675 0.03571906 -0.05079618 -0.025123777
0.03377882 0.0506576 -0.051949468 0.018415462 0.031953204 -0.026132116 0.019807335 -0.02825822
-0.039664082 -0.010302085 0.03532493 -0.00061877404 0.048229057 -0.016026348 -0.05768608 -0.0106041515
0.017506652 0.025328934 -0.01266352 0.04934017 -0.0011233878 -0.00013574242 0.017594643 -0.015570239
-0.035038654 -0.027301386 -0.010748123 0.0102215195 0.04851187 0.024994811 0.02265007 -0.04829828
-0.018585876 -0.04785278 0.019560423 -0.043097008 0.050933644 -0.029987482 0.0388808 0.013390879
00000000: 6bc9 f23c 8a77 163d d7c5 37bc 280b 14bb
00000010: f7bc 62bd 1da8 23bc 6575 353d 078a 4ebd
00000020: 456e 4f3d e3f4 f1bc ec93 ac3c 671c cebc
00000030: 0ac1 9ebc 7d87 fe3c 68e8 0abd 1e5d 7f3c
00000040: 171e fa3c d077 07bb 988b 0a3c f025 193c
00000050: 305a 6d3c d937 a23a 45e1 03bd 103e b83c
00000060: 0dd7 a1bc e3c3 2339 2943 00bd 1263 963b
00000070: c573 e5bc adc1 533c b6db 5ebd 9117 803b
00000080: 95fa 68bd b261 4abc 9634 223d 26ab 61bd
00000090: b06a f23c f464 483d f9ad 64bc 3bde d53c
000000a0: 63ee c13c e3ec 123c 59d5 00bd 82e4 593d
000000b0: 38a1 2bbd 53fe 1abd 5795 6bbc 2e65 2abd
000000c0: d487 b0bc 6e7e 11bd c1ef f0bc cd0b b0bc
000000d0: 6215 9dbc edc8 893c bc2c 533d 7966 383d
000000e0: 9e84 62bc 4d56 3ebd fea5 89bc 297a 8e3b
000000f0: 49d7 57bd 69f5 a7bb ba2a 163d 3bbe 79bd
00000100: 97e6 933c fd7a c53b 74ea 80bc 68d5 d8bc
00000110: b23c 4f3c d3fa 54bd b103 263c 9a04 d73c
00000120: 96c3 313d 41fb 11bd 1dcc 59bd ea8f d83c
00000130: 4ae6 58bc ef2d 66bd 4182 0bbc 387e 29bd
00000140: f5ff 10bd af5a 98bb b49f e23c 36d2 cdbc
00000150: a62e 1c3d 0ddd b5bc 00df c73c 2fe8 0cbd
00000160: 71a5 09bd 19e5 9fbb d13c 33bd 0a96 52bd
00000170: 66cf 39bb 6137 883c 2a15 e6bc 0d7c 4a3c
00000180: cc4d 59bd 1589 18bd 2795 373c 2295 9b3c
00000190: 5df2 38bd d8cf 0cbb 591d ef3c feef 0cbd
000001a0: c936 3e3c a2c5 8dbc d9db 2e3d 5143 0e3d
000001b0: 9e95 2f3d 69bd ebbc 2848 24bd fa63 473d
000001c0: 2652 333d 4f9d 6bbd 799a 6d3c 2976 bebc
000001d0: 5be8 adbb e98e f23b 7c3d 8f3c ae0e f5ba
000001e0: f0c9 d73c 78ba 203c 5225 daba 76a2 2bbd
000001f0: b3b3 0cbd d410 003d df05 5e3b 313c 303d
00000200: f068 c5bb 739e 35bc 4605 2ebd 9f03 283d
00000210: 2241 9e3c 54ee 143d b7de d73c 78c4 15bd
00000220: 3489 213d 581d 243b 0bb1 6dbd b2cd 113d
00000230: 3b30 8c3c 3260 52bb 92cb c23b 68b3 1e3d
00000240: 40bd ba3c d3e5 8ebc 2d5b ee3c f1d3 973c
00000250: 33d1 4cba 7f64 01bd 198b 78bd 882d 48bc
00000260: 1759 953c 28e7 89bc f98c fb3c e12e 473d
00000270: 3eb5 44bc 3ca4 dabc 2f9e 16bd 8c92 23bd
00000280: d6dd c7bc becf 07bd afc2 c33c 0338 473d
00000290: 7077 523d 8fac d13c f2ee 15bd 7518 f73b
000002a0: fc56 05bd f951 a8bc ee75 b43c 2343 55bd
000002b0: 6337 3cbd 5c38 3fbd 7f42 0ebd 7f3c 3c3d
000002c0: e9fc 673d 302c 48bd 6aed 9a3c 0111 8fbc
000002d0: 9f09 25bd 4a89 0b3d c036 9dbc 57ba aa3c
000002e0: 4820 2a3d 67d1 57bd de0f 41bd e7cb 06bd
000002f0: c257 42bd b8ff 113c c5b9 50bd 9492 4c3d
00000300: 2df7 863c f4bb 663c 96b2 07bd 0a81 613d
00000310: 03d0 d5bc a2dd 5b3b 472e 5fbc 16ae 553d
00000320: 0030 21bb b5d2 433d 5037 0abc 1f80 523d
00000330: 9216 31bd 48f9 163d bf97 24bd 75ca 37bd
00000340: 8132 d6bc acc8 e0bb 22a1 013d 0596 30bc
00000350: fae9 443c 264e 123d a80f 50bd 61d0 cdbc
00000360: a95b 0a3d 587e 4f3d f7c8 54bd 06dc 963c
00000370: 5de1 023d 0513 d6bc fe42 a23c c87d e7bc
00000380: ce76 22bd 14ca 28bc e0b0 103d 3935 22ba
00000390: d58b 453d b049 83bc 3d48 6cbd 09bd 2dbc
000003a0: 1c6a 8f3c a07e cf3c a77a 4fbc eb18 4a3d
000003b0: a43e 93ba 1456 0eb9 a422 903c 511a 7fbc
000003c0: b184 0fbd 28a7 dfbc e518 30bc 2978 273c
000003d0: 62b4 463d ebc1 cc3c a48c b93c 6bd4 45bd
000003e0: 6841 98bc 4701 44bd 2e3d a03c 7d86 30bd
000003f0: cc9f 503d 4fa8 f5bc 7941 1f3d 6b65 5b3c

_3_3_conv.2.bias f4 [18]
-0.027372308 0.033808347 0.049579237 0.020680126 -0.04054565 0.054182176 0.030940633 -0.025880238
-0.02762376 0.054714207 0.038977627 0.045139354 0.0427777 -0.0029792094 -0.01571503 0.051406946
-0.016192418 -0.034451
00000000: e43b e0bc 9f7a 0a3d 9913 4b3d 5e69 a93c
00000010: 3213 26bd 21ee 5d3d 3677 fd3c cb02 d4bc
00000020: 394b e2bc 011c 603d 01a7 1f3d 0be4 383d
00000030: ab37 2f3d d73e 43bb cebc 80bc 1790 523d
00000040: f6a5 84bc 7e1c 0dbd
